flappy-bird-bot/runs/flappybird3.pt (torch, 49349 bytes, 4 tensors)

fc1.weight f4 [64, 180]
0	0xbd8331bc	-0.064059705
1	0x3cd44010	0.025909454
2	0x3d293e00	0.041318893
3	0xbd272067	-0.040802386
4	0x3d5edcf6	0.054409944
5	0x3d78891a	0.060677625
6	0xbd3e3b4a	-0.04644326
7	0xbd072e0a	-0.03300289
8	0xbcf14638	-0.029452428
9	0xbc8f54d6	-0.017496508
10	0x3c948120	0.018127978
11	0xbcc13840	-0.023586392
12	0x3c16fbe0	0.009215325
13	0xbd1a8144	-0.037720934
14	0xbb6815a0	-0.003541328
15	0xbd18b502	-0.037281998
16	0xbd1342d5	-0.035952408
17	0xbd3a471a	-0.045477964
18	0x3c0af388	0.008480914
19	0xbc88cb60	-0.01669854
20	0x3d202d10	0.039105475
21	0x3c25d990	0.010122672
22	0xbd8fbe27	-0.070186906
23	0xbd2450e2	-0.0401162
24	0xbd21195c	-0.039330825
25	0x3d5e1b5e	0.054225318
26	0xbc125810	-0.008932129
27	0x3d83fdcb	0.064448915
28	0x3b361180	0.0027781427
29	0xbd4e3269	-0.050341044
30	0x3d6455be	0.055745833
31	0xbd6fc1da	-0.05853448
32	0xbd417d4e	-0.04723864
33	0x3d26839c	0.040652856
34	0x3d22d4ce	0.039753728
35	0x3d4ce528	0.050023228
36	0x3d9520dd	0.07281659
37	0xbd59e7b1	-0.053199474
38	0xbd81de39	-0.06341214
39	0xbd86623a	-0.06561704
40	0xbbbb6a70	-0.0057194754
41	0xbbed8eb0	-0.0072496757
42	0x3cc043d8	0.02346985
43	0xbd0a3217	-0.033739176
44	0xbccdfa58	-0.025143787
45	0xb7c99000	-2.4028122e-05
46	0xbab493c0	-0.0013776943
47	0x3cb5209c	0.022110276
48	0xbd4423d9	-0.04788575
49	0x3d448536	0.047978602
50	0x3d2b6208	0.041841537
51	0x3d97c747	0.07411056
52	0xbd8c090c	-0.06837663
53	0x3c6f0f68	0.0145910755
54	0xbc99b7aa	-0.018764336
55	0xbd5d8fae	-0.0540921
56	0xbcbe29e2	-0.02321333
57	0xbc572ccc	-0.013133239
58	0x3d0c291a	0.034218885
59	0x3d8f8fab	0.07009824
60	0xbc9212fe	-0.017831322
61	0x3cfc48e4	0.030796476
62	0xbccf3956	-0.025295895
63	0x3d88670d	0.066602804
64	0xbd7c3c04	-0.061580673
65	0x3d93b4b1	0.072121985
66	0x3d5ec446	0.0543864
67	0xbcfcb172	-0.030846331
68	0x3c8ccbac	0.017186962
69	0xbd870e9a	-0.06594582
70	0x3cdad994	0.026715077
71	0x3d61120e	0.05494886
72	0x3d8e18e3	0.069383405
73	0xbc10ac30	-0.008830115
74	0x3d64518e	0.05574184
75	0xbd5350a2	-0.05159057
76	0x3c8cd5fc	0.01719188
77	0xbd3bda1a	-0.045862295
78	0x3d61afb6	0.05509921
79	0xbd5d8f4a	-0.05409173
80	0xba708580	-0.00091751665
81	0xbaa399c0	-0.0012481734
82	0x3d3e9906	0.046532653
83	0x3d97adc9	0.07406194
84	0xbd8997f4	-0.06718436
85	0x3d865757	0.065596275
86	0xbd856964	-0.06514242
87	0xbd298030	-0.041382015
88	0x3c8fc6c4	0.017550834
89	0x3d2a78d6	0.041619144
90	0xbc5371d8	-0.01290556
91	0xbb9a58e0	-0.0047103018
92	0xbc68bc4c	-0.01420505
93	0xbd722522	-0.059117444
94	0x3cab18d0	0.020885855
95	0x3d77bafa	0.06048105
96	0x3cf56830	0.029956907
97	0x3c2f16d8	0.010686599
98	0xbb940740	-0.004517466
99	0x3c400a08	0.011721142
100	0x3cd0c77c	0.025485747
101	0xbd9020f5	-0.07037536
102	0xbc98ec42	-0.018667344
103	0xbd30a2a7	-0.043123867
104	0x3c36ea48	0.011164255
105	0x3caa54c8	0.02079238
106	0xbb8dfbe0	-0.0043330044
107	0xbc90e576	-0.01768754
108	0x3d0ee6f6	0.03488823
109	0x3cb9deac	0.022689186
110	0x3d396e14	0.045270994
111	0xbd3dc5a7	-0.046331074
112	0xbd8ea93a	-0.06965871
113	0x3d3f9814	0.046775892
114	0xbc9f6440	-0.019456983
115	0xbd80ab2e	-0.0628265
116	0xbd882d27	-0.06649237
117	0x3d1f9cea	0.038968004
118	0x3d824def	0.06362521
119	0xbc84aa26	-0.016194414
120	0xbd8dd1a2	-0.0692475
121	0x3d636f4a	0.055526055
122	0x3d48e6b4	0.04904814
123	0x3c038958	0.008028351
124	0xbd80c928	-0.062883675
125	0xbc90a806	-0.017658245
126	0x3d93d10f	0.07217609
127	0xbbc23790	-0.0059270337
128	0x3cea826c	0.028626643
129	0x3d7a769e	0.06114828
130	0x3d792302	0.0608244
131	0xbd073ac9	-0.033015046
132	0xbd515c53	-0.051113438
133	0x3d5a4422	0.053287633
134	0x3d1c893e	0.03821682
135	0x3d405e98	0.04696521
136	0xbd0b6b69	-0.03403798
137	0x3d72d222	0.05928243
138	0x3d4aad06	0.049481414
139	0x3c41ffe8	0.011840798
140	0xbd6120c8	-0.054962903
141	0x3d3a4bf2	0.045482583
142	0xbca70018	-0.020385787
143	0xbd5cb825	-0.05388655
144	0x3d02b74e	0.031913094
145	0xbd8e1138	-0.06936878
146	0x3b0b02a0	0.0021211281
147	0xbd4d9d38	-0.050198764
148	0xbd7b5568	-0.061360747
149	0x3c245358	0.010029636
150	0xbd00fb18	-0.03148946
151	0x3d6feeb2	0.058577247
152	0x3c656c20	0.01400283
153	0xbd2c83c2	-0.04211784
154	0xbcccec00	-0.025014877
155	0xbd56ded8	-0.052458614
156	0x3ce0413c	0.027374856
157	0x3ca01eb4	0.01954589
158	0xbcb4dfdc	-0.0220794
159	0xbd93541e	-0.071937785
160	0xbd678fef	-0.05653375
161	0xbd82e671	-0.063916095
162	0xbc9bce9c	-0.019019417
163	0xbd1ad111	-0.037797038
164	0xbd1bd894	-0.038048342
165	0xbc97037a	-0.018434275
166	0x3d96a7db	0.07356235
167	0x3c9cee3c	0.019156568
168	0xbd4df522	-0.050282605
169	0x3b346360	0.0027525052
170	0xbc941d02	-0.018080238
171	0x3c5708b0	0.01312463
172	0x3cb4d5fc	0.022074692
173	0x3cc2f668	0.023799136
174	0x3c67de20	0.01415208
175	0x3a44c680	0.00075063854
176	0x3c491200	0.012272358
177	0xbcf288fe	-0.029606339
178	0x3c0e2798	0.008676432
179	0x3d0c2b9e	0.034221284
180	0xbdb1338d	-0.08652411
181	0x3d6f1f54	0.058379486
182	0xbd61d578	-0.05513522
183	0xbdafdf17	-0.08587473
184	0xbd1f3e96	-0.038878046
185	0x3cfeb007	0.031089796
186	0xbb495132	-0.0030718562
187	0xbd8720fa	-0.06598087
188	0x3c7d48fb	0.015459294
189	0xbd9ef565	-0.07761649
190	0x3d7969cb	0.060891908
191	0xbcd4a0d5	-0.025955597
192	0x3d49bd64	0.049252883
193	0xbd345c5a	-0.044033386
194	0x3c6a395d	0.014295903
195	0xbb4b06b4	-0.0030979337
196	0x3d6bf3e0	0.057605624
197	0xbc50d0e3	-0.012745115
198	0x3ca22159	0.019791292
199	0xbd4f0852	-0.050545044
200	0xbcacf93a	-0.021114934
201	0xbcc6497b	-0.02420496
202	0x3d1b3e92	0.03790147
203	0xbcae5378	-0.021280035
204	0xbd8c9801	-0.0686493
205	0x3d234ddc	0.039869174
206	0xbd871a78	-0.065968454
207	0xbd4e24d3	-0.050328087
208	0xbd25f8d2	-0.040520497
209	0x393a0319	0.00017739496
210	0x3a689ae3	0.00088731776
211	0xbd5c2508	-0.053746253
212	0x3d417dc6	0.047239088
213	0x3bd8fdff	0.0066220756
214	0x3d31d17a	0.043412663
215	0xbd9881a8	-0.07446605
216	0xbcef85c5	-0.029238591
217	0xbda5587e	-0.08073519
218	0xbb56d92f	-0.003278326
219	0xbc0c9304	-0.008579973
220	0xbd793cea	-0.060849108
221	0x3d1a73fd	0.03770827
222	0x3bffb800	0.007803917
223	0xbc84975e	-0.016185459
224	0xbd64ff92	-0.055907793
225	0x3caac4bf	0.020845769
226	0xbd5aedbd	-0.05344938
227	0x3d68afa8	0.056808144
228	0xbd573167	-0.052537348
229	0xbc3cb661	-0.011518092
230	0x3bd27c2e	0.006423495
231	0x3d678a70	0.05652851
232	0xbda83bdf	-0.082145445
233	0x3c01282c	0.007883113
234	0x3c946399	0.018113898
235	0xbda14873	-0.07875147
236	0x3ca9c83c	0.020725362
237	0xbbc1c49f	-0.0059133316
238	0x3cfdc5d9	0.03097813
239	0xbcaf2e95	-0.021384517
240	0xbc784ef1	-0.01515554
241	0x3d4b1f2b	0.04959027
242	0xbd84e66f	-0.06489264
243	0xbd0d95f8	-0.03456685
244	0x3c80b46a	0.015711028
245	0xbc433843	-0.011915269
246	0xbda04f36	-0.07827608
247	0xbd9ea3b3	-0.07746067
248	0x3d0f799e	0.035028093
249	0xbcd44529	-0.025911884
250	0x3d4b2ff8	0.049606293
251	0xbc49a0c5	-0.012306397
252	0xbd8c9870	-0.06865013
253	0xbd7ccc7e	-0.061718456
254	0xbd2a01c5	-0.041505594
255	0xbc5f1d46	-0.013617819

fc1.bias f4 [64]
0	0xbd455762	-0.048179038
1	0x3d56e6a4	0.05246605
2	0xbd829f82	-0.0637808
3	0x3da51ec4	0.08062509
4	0x3cbd28f4	0.023090817
5	0xbc6b8a27	-0.0143762
6	0xba668d54	-0.0008794863
7	0x3b5cdb40	0.003370002
8	0xbd1f6c8f	-0.03892189
9	0x3ca4a869	0.020099835
10	0x3dcf98c4	0.101365596
11	0x3cdce924	0.026966639
12	0x3cc51c8d	0.024061466
13	0x3e230d30	0.15923
14	0xbdb14e53	-0.08657517
15	0x3c877147	0.016533507
16	0xbd181ad1	-0.03713495
17	0x3c99fbe6	0.018796872
18	0x3db01614	0.08597961
19	0x3dcdb49f	0.10044216
20	0xbce6bd9d	-0.028166587
21	0xbc80a484	-0.015703447
22	0xbc0c31b9	-0.008556777
23	0xbcf6c155	-0.030121485
24	0x3cbd99fe	0.023144718
25	0x3ce3ed77	0.027823193
26	0x3a8061a9	0.000979473
27	0x37ce834b	2.4618252e-05
28	0x3d106ce0	0.03526008
29	0xbd252f05	-0.040328044
30	0x3d146449	0.036228452
31	0xbcb8bdc7	-0.02255143
32	0xbbe9c74e	-0.0071343547
33	0xbd745d29	-0.059659157
34	0xbd1fc474	-0.03900571
35	0x3d397677	0.045278993
36	0xbd00a1ef	-0.031404432
37	0xbceac4c4	-0.028658278
38	0xbd939ab6	-0.07207243
39	0x3cb06e1b	0.021536877
40	0xbd8cb855	-0.06871096
41	0x3b88110c	0.004152423
42	0x3d9371e5	0.07199458
43	0x3c9c1cb2	0.019056652
44	0xbb38c172	-0.0028191474
45	0xbd1a3daa	-0.037656464
46	0x3aea6720	0.0017883517
47	0x3dcee565	0.10102347
48	0xbc81daa0	-0.015851319
49	0xbc59548f	-0.013264789
50	0xbcfa4dde	-0.030554708
51	0xbdaeb644	-0.08530858
52	0xbd8ca23d	-0.06866882
53	0xbd6c3f1f	-0.057677384
54	0x3e00c22a	0.12574068
55	0x3dc0605f	0.09393381
56	0x3dc6d4c6	0.09708552
57	0xbcdac6ee	-0.026706185
58	0x3d8d006c	0.06884846
59	0xbb8895e8	-0.004168261
60	0x3d089fd3	0.033355545
61	0x3cbb068f	0.022830276
62	0x3d925d06	0.07146649
63	0xbc72c32a	-0.014817039

output.weight f4 [2, 64]
0	0xbd81cb7a	-0.06337638
1	0x3d54cd79	0.051953766
2	0xbdd575f6	-0.1042289
3	0xbd912098	-0.07086295
4	0xbdf74aa4	-0.120747834
5	0x3d1552db	0.03645597
6	0x3cc78b79	0.024358498
7	0xbdb4e956	-0.08833568
8	0x3c04ceb0	0.008105919
9	0x3de4be18	0.1116907
10	0xbdf99de3	-0.121883176
11	0x3c0677db	0.008207287
12	0xbdecc608	-0.11561209
13	0xbd9ea0ee	-0.07745539
14	0x3d4044eb	0.046940725
15	0xbd3c52ec	-0.045977518
16	0x3d787e15	0.060667116
17	0xbdf330bb	-0.11874529
18	0x3cf91035	0.030403236
19	0x3bfaf786	0.0076589016
20	0xbae3be32	-0.0017375408
21	0x3dbdb25f	0.09262537
22	0x3d062e10	0.032758772
23	0x3d6a24b3	0.057163905
24	0x3c97e90d	0.018543744
25	0x3d43be5d	0.047788966
26	0xbd3dd9b4	-0.046350196
27	0xbd30785c	-0.043083534
28	0x3de68d1a	0.11257382
29	0x3da8018c	0.0820342
30	0xbe00b10b	-0.12567537
31	0x3dda6741	0.10664225
32	0xbdb88326	-0.090093896
33	0x3d73cbe6	0.059520625
34	0x3deceb03	0.115682624
35	0xbd6dd768	-0.058066756
36	0x3db0d46d	0.08634267
37	0xbc18e52b	-0.009331982
38	0x3dc3514f	0.09536993
39	0xbb3902b7	-0.0028230378
40	0x3d1ec2aa	0.038759865
41	0x3d384ac1	0.044993166
42	0xbe1cc5c8	-0.15309823
43	0xbc805043	-0.015663272
44	0x3dc5e55a	0.09662886
45	0x3d8c8fb0	0.06863344
46	0xbde8e66f	-0.11372077
47	0xbe254845	-0.1614085
48	0x3dbd38d1	0.092393525
49	0xbd51272e	-0.051062755
50	0xbd7843e1	-0.06061161
51	0x3db25541	0.08707667
52	0xbdbea111	-0.09308065
53	0xbd17c6be	-0.03705477
54	0xbe14d8db	-0.14535849
55	0xbe104a60	-0.14090872
56	0xbd8a2af6	-0.067464754
57	0x3caa2948	0.020771638
58	0xbe12cbca	-0.14335552
59	0xbdaa9af0	-0.08330333
60	0x3db3e2d4	0.087834984
61	0x3d25a986	0.040444873
62	0xbe123fdb	-0.14282171
63	0x3d0bfeb1	0.03417844
64	0x3d6f1a98	0.05837497
65	0x3d2c582e	0.042076282
66	0x3cd6e9a8	0.026234463
67	0xbdbb58e1	-0.09147812
68	0xbdaa9d0c	-0.083307356
69	0xbc793594	-0.015210528
70	0x3dc9ea5a	0.09859152
71	0xbcc0ca20	-0.02353388
72	0x3db11828	0.086471856
73	0xbd08ee82	-0.033430584
74	0x3b0e8c0f	0.0021750962
75	0x3c3e6f93	0.011623281
76	0xbdd575b3	-0.1042284
77	0xbdda4ac2	-0.1065879
78	0x3ca64528	0.020296648
79	0xbe185db9	-0.14879502
80	0x3c3503b5	0.011048247
81	0xbd4ad237	-0.049516883
82	0xbd938123	-0.07202365
83	0xbdb9fa96	-0.090809986
84	0x3d1e2387	0.0386081
85	0x3dbda97f	0.092608444
86	0xbddfcaf8	-0.10927385
87	0x3d58bd94	0.05291517
88	0xbd85b680	-0.0652895
89	0x3da48a4c	0.080341905
90	0x3d9a8d6c	0.07546505
91	0x3d4c5e38	0.04989454
92	0xbd7014d8	-0.05861363
93	0xbda11e96	-0.07867162
94	0xbdf2023c	-0.118168324
95	0xbd870328	-0.06592399
96	0x3de8ed39	0.11373372
97	0x3de16fea	0.11007674
98	0xbcb15fda	-0.02165215
99	0x3c9e7d19	0.01934676
100	0xbc2042b2	-0.009781526
101	0x3df9edfd	0.12203596
102	0x3d3ce6ca	0.046118535
103	0x3dc9bdab	0.098506294
104	0xbdceb704	-0.10093501
105	0xbd55c762	-0.0521921
106	0xbe3ab756	-0.18234
107	0xbdf4827a	-0.11938949
108	0x3e006552	0.1253865
109	0xbd0f87e8	-0.03504172
110	0x3d17c3d5	0.037051994
111	0xbe492b33	-0.19645385
112	0x3df435ef	0.119243495
113	0x3d110533	0.03540535
114	0x3db31551	0.087443
115	0x3cf9a797	0.03047542
116	0x3dd30a73	0.103047274
117	0xbd1e67f8	-0.03867337
118	0xbdf3563d	-0.11881683
119	0xbe16d6ef	-0.14730428
120	0xbda65414	-0.081215054
121	0x3dc08a32	0.09401359
122	0xbdac3a45	-0.084095515
123	0xbddc6851	-0.10762084
124	0x3d470bdc	0.048595294
125	0xbd93cb7c	-0.07216546
126	0x3cdeffa8	0.027221516
127	0x3c135a46	0.008993691

output.bias f4 [2]
0	0xbcf030cb	-0.029320141
1	0x3b69629b	0.0035611752
