flappy-bird-bot/runs/flappybird4_safe.pt (torch, 33271 bytes, 4 tensors)

fc1.weight f4 [512, 12]
0.36679646 -0.38191333 -0.2734517 -0.14357144 -0.04111058 -0.014834715 -0.24893165 0.23876664
0.11333633 0.77474266 -0.32159674 0.40218246 -0.43836004 0.2473428 -0.090826444 -0.26772684
0.32092237 0.20622937 0.12771103 -0.19416405 0.23425958 -0.26481476 0.010360493 0.08708406
-0.31864265 0.27475023 0.053128988 0.26945704 -0.30042225 -0.06336735 0.05297216 -0.30254424
-0.012756298 -0.028391005 -0.34162977 0.115760535 -0.038950905 -0.104381666 -0.25553858 0.016764224
-0.28254363 -0.10639137 0.28092825 0.23496467 -0.20191021 0.044671565 0.16643557 -0.0037024617
0.10927605 0.024818411 0.102212206 0.19420795 0.1722968 -0.14407572 0.06569302 0.18930936
-0.11730996 -0.06378787 -0.12120355 0.32203045 0.043789208 0.37847638 -0.15515761 -0.022323774
0.08931222 -0.12939906 0.16729978 0.05740786 -0.005916789 0.4610362 0.099893145 -0.044915628
-0.15947123 0.41081277 -0.09820397 -0.09164922 -0.029805098 -0.019073745 0.245586 -0.040710676
-0.1605677 -0.21169588 0.21253797 -0.122996815 -0.4444937 -0.02913517 -0.083169304 -0.034723476
-0.3302835 0.18985091 0.025291506 -0.24417295 0.15228076 -0.1636877 -0.3181424 0.15987915
0.28745276 0.13719736 0.33407947 -0.19241334 0.060722772 0.07991072 -0.27308083 -0.087137856
-0.13747813 0.27508396 -0.33915976 0.23126984 0.11646167 -0.25676018 -0.12961964 0.16074882
0.23954289 -0.023911776 -0.18493278 0.5357856 -0.08228534 0.10622267 0.18382779 0.3918461
-0.2005416 0.119643755 0.034948412 -0.010817491 0.24591313 -0.0369087 -0.25406882 -0.2543385
0.01108832 0.04975381 0.10166516 0.27957118 0.07502008 -0.1162614 0.17258802 0.20638895
0.2346272 0.16567852 0.29775363 0.21665986 -0.091068715 -0.3568225 0.15512426 -0.0035029282
0.6235208 -0.12837622 -0.08299223 0.23242399 -0.016305815 0.03224714 -0.113632016 0.40109783
-0.31072485 0.62235326 0.03219602 -0.30460197 -0.26907122 0.16039856 0.15160376 0.27915835
0.08574239 0.018693764 -0.16933793 0.020320458 0.008483291 -0.18278597 0.30934972 0.12116221
0.29313573 0.038151152 -0.10469088 0.0063578044 -0.18836759 0.22470266 -0.21677981 -0.008880237
-0.04385065 0.7141357 0.0050636446 -0.32766062 0.7285843 -0.053709887 -0.026111662 0.17050551
-0.18883286 0.027127543 -0.22847205 0.16321605 -0.3647669 0.580137 0.048895385 0.056115933
-0.31878254 -0.20907561 0.1729172 0.35492238 0.13524765 -0.14199504 0.23901945 -0.19554293
-0.26178488 0.14008859 -0.36964878 0.10674989 -0.2848545 0.24504696 0.13705663 0.2920272
-0.2821547 0.23597994 0.2286506 -0.3488425 -0.099777885 -0.34412238 -0.31788352 0.12303566
-0.60315764 -0.019902835 0.0032285473 -0.2639076 -0.062037643 0.15345213 0.24971032 -0.25723743
0.007030317 0.12698838 0.06754423 0.13946193 -0.076718956 0.12784886 -0.025095908 0.00929782
-0.48085895 0.09078528 0.02976041 0.09378417 -0.24838799 -0.17620485 -0.15969798 -0.15989359
-0.22930384 -0.19406548 -0.2881084 -0.2661684 0.14147186 0.12407243 -0.26522917 -0.27183494
0.2273435 -0.19892308 -0.017844766 0.060225457 0.040169604 -0.3575808 -0.1330965 0.030931696
00000000: bfcc bb3e 258a c3be dc01 8cbe 6404 13be
00000010: 9163 28bd 4e0d 73bc f0e7 7ebe 3e7f 743e
00000020: e11c e83d 8955 463f 54a8 a4be dcea cd3e
00000030: ba70 e0be 6e47 7d3e 3703 babd 7e13 89be
00000040: f04f a43e cb2d 533e aec6 023e f1d2 46be
00000050: bee1 6f3e cd95 87be 0fbf 293c 2159 b23d
00000060: 2125 a3be 10ac 8c3e c89d 593d 46f6 893e
00000070: f2d0 99be bec6 81bd 56f9 583d 14e7 9abe
00000080: cbff 50bc 4194 e8bc 19ea aebe dc13 ed3d
00000090: fc8a 1fbd 0ec6 d5bd f4d5 82be 2055 893c
000000a0: 8fa9 90be b8e3 d9bd d4d5 8f3e 949a 703e
000000b0: 8dc1 4ebe 88f9 363d 166e 2a3e 00a5 72bb
000000c0: 1fcc df3d fb4f cb3c a254 d13d 73de 463e
000000d0: 936e 303e 9688 13be 108a 863d 50da 413e
000000e0: 3440 f0bd 37a3 82bd 9139 f8bd 2de1 a43e
000000f0: 505c 333d a8c7 c13e a3e1 1ebe 59e0 b6bc
00000100: 53e9 b63d 3081 04be a250 2b3e 8124 6b3d
00000110: a0e1 c1bb f00c ec3e c794 cc3d 73f9 37bd
00000120: 6d4c 23be 0d56 d23e 2a1f c9bd 96b2 bbbd
00000130: d229 f4bc 8b40 9cbc e57a 7b3e 3dc0 26bd
00000140: dc6b 24be cec6 58be 8ea3 593e c1e5 fbbd
00000150: ae94 e3be e1ac eebc ab54 aabd 343a 0ebd
00000160: eb1a a9be 4768 423e 2230 cf3c 7908 7abe
00000170: 7def 1b3e c09d 27be 90e3 a2be 5cb7 233e
00000180: 022d 933e 777d 0c3e 770c ab3e 0108 45be
00000190: 71b8 783d 3ba8 a33d 40d1 8bbe 5575 b2bd
000001a0: 11c7 0cbe ced7 8c3e 59a6 adbe 00d2 6c3e
000001b0: 7583 ee3d 1276 83be 03bb 04be 579b 243e
000001c0: bb4a 753e a1e2 c3bc 055f 3dbe 3f29 093f
000001d0: 3785 a8bd 458b d93d 5a3d 3c3e 0da0 c83e
000001e0: c75a 4dbe c907 f53d 1126 0f3d d93b 31bc
000001f0: a7d0 7b3e 942d 17bd 4f15 82be a838 82be
00000200: c9ab 353c a7ca 4b3d d335 d03d f423 8f3e
00000210: 21a4 993d 751a eebd eaba 303e a057 533e
00000220: 1d42 703e a1a7 293e 2a73 983e 15dc 5d3e
00000230: 3c82 babd 70b1 b6be e5d8 1e3e 6291 65bb
00000240: 0f9f 1f3f 0e75 03be d5f7 a9bd 8e00 6e3e
00000250: c693 85bc 9415 043d e7b7 e8bd b25c cd3e
00000260: 5417 9fbe 8b52 1f3f f9df 033d caf4 9bbe
00000270: b4c3 89be 853f 243e 043e 1b3e d8ed 8e3e
00000280: b599 af3d aa23 993c ec66 2dbe 1777 a63c
00000290: 80fd 0a3c 3f2c 3bbe 1663 9e3e e523 f83d
000002a0: e315 963e 6244 1c3d 2c68 d6bd 2155 d03b
000002b0: 6fe3 40be 7418 663e 87fb 5dbe 6a7e 11bc
000002c0: bd9c 33bd 99d1 363f eeec a53b 22c3 a7be
000002d0: 8084 3a3f e6fe 5bbd 20e8 d5bc ff98 2e3e
000002e0: 675d 41be 953a de3c 94f4 69be 1c22 273e
000002f0: bac2 babe dc83 143f 8746 483d d2d9 653d
00000300: 7737 a3be eb17 56be 3511 313e 63b8 b53e
00000310: 5c7e 0a3e 2667 11be 84c1 743e 683c 48be
00000320: ab08 86be 6273 0f3e 9b42 bdbe b09f da3d
00000330: 73d8 91be 97ed 7a3e 9358 0c3e 9784 953e
00000340: 9576 90be baa4 713e 6223 6a3e 7c9b b2be
00000350: 5958 ccbd cf30 b0be a1c1 a2be 1ffa fb3d
00000360: 8a68 1abf 450b a3bc 0996 533b e61e 87be
00000370: 2f1b 7ebd 8e22 1d3e 10b4 7f3e a0b4 83be
00000380: 935e e63b 3e09 023e a154 8a3d 1ccf 0e3e
00000390: d41e 9dbd d0ea 023e ef95 cdbc e255 183c
000003a0: 2533 f6be a2ed b93d 1acc f33c ea11 c03d
000003b0: 6c59 7ebe 0b6f 34be de87 23be 25bb 23be
000003c0: a0ce 6abe 1ab9 46be f282 93be 3947 88be
000003d0: 00de 103e b019 fe3d 1ecc 87be f32d 8bbe
000003e0: bccc 683e 7eb2 4bbe 302f 92bc f8ae 763d
000003f0: e288 243d d514 b7be 734a 08be 7864 fd3c

fc1.bias f4 [512]
0.24473572 -0.088704795 -0.21736333 -0.25588095 0.24351041 -0.05734463 0.25871617 0.20574285
0.05692935 0.10229766 0.0052527925 -0.02796269 -0.10499843 0.17466423 -0.10065997 -0.12407444
0.072450526 0.26179326 0.047416754 0.008946321 -0.26003563 0.07008349 0.11684576 0.23300907
0.20547955 0.10737928 0.027596602 -0.039324015 0.057161752 -0.10512364 0.39160728 -0.31811342
-0.015069573 0.29488167 -0.2560492 -0.044846136 0.24060278 -0.19385226 0.25904113 -0.070948824
0.16555655 -0.35289514 0.10961214 0.28139845 0.04524715 0.29699665 0.26158154 0.086853236
0.25047138 0.15930931 -0.12837826 0.099406205 0.009780474 -0.3327629 -0.17915055 0.15248941
0.18844883 0.08323923 -0.08106724 -0.0938939 0.06238073 0.17507571 0.088609844 -0.19842719
-0.041828733 -0.19859517 -0.27557352 0.013457775 -0.016323661 0.045249768 -0.21455346 0.2096928
-0.23651816 0.025837272 -0.055831224 0.17544493 -0.2836119 -0.14479136 0.25199667 -0.09491907
0.1508281 -0.24477206 0.13475451 -0.2668185 0.15406701 -0.025963519 0.0765198 0.18350953
-0.08959917 -0.20060477 -0.24036661 0.14458331 -0.22531725 0.19781412 -0.10670358 0.25999367
-0.17582116 -0.20896982 -0.3000745 0.06723894 -0.29593775 0.2727432 -0.030110836 0.2607355
-0.20975576 0.06558107 0.16149783 0.07927121 0.057963807 -0.15345487 0.057295527 -0.14134744
0.21065557 0.12851362 -0.2822819 0.009023641 0.19136696 0.12145177 0.23035806 0.1529718
0.26327756 -0.15094447 -0.2515438 0.014489436 -0.21920645 -0.119714685 0.33191878 0.27973622
-0.13290916 -0.034696825 0.13641295 -0.20079458 -0.0444882 -0.33840978 -0.16021398 0.017584559
0.06603962 -0.27933815 -0.016708525 0.00032074112 -0.211847 0.14477758 0.40024126 0.0388802
0.036445726 -0.27374107 -0.2198585 -0.12906697 -0.0045746593 0.0031713354 0.061202377 -0.0985165
0.22742659 0.042169325 -0.1415884 0.1755087 0.09891252 0.034894373 0.18354608 -0.3145266
-0.07062026 0.23638758 0.062185965 0.12619564 -0.15879683 0.032784313 -0.08785837 -0.106383555
0.1888932 -0.15727924 0.2469651 -0.23301047 0.11307939 -0.28858262 0.19896272 0.27424186
-0.12251213 -0.2315141 -0.1803107 -0.08659932 -0.03145792 0.35622117 0.119269826 0.21960633
-0.16381992 0.18429415 -0.15702334 0.025798986 -0.129133 0.10204569 0.0996537 -0.11564806
0.25144944 -0.186059 -0.18383476 -0.33296013 -0.23161381 0.22130382 0.20340832 0.2821213
-0.07421015 -0.017166972 -0.11252537 0.18852873 -0.27925414 -0.18932275 -0.12142707 -0.11312768
-0.21256074 0.20422597 0.1379615 -0.084823176 -0.08610472 -0.2616104 -0.054256015 0.21296167
0.04361045 0.08783166 -0.12439495 -0.14196986 0.1870663 -0.12693629 0.075657435 0.07292617
-0.22630072 0.28625345 0.12246939 -0.016646642 0.28714335 -0.15702622 0.30016825 0.2711739
0.17122659 0.06459518 0.030310366 -0.07826778 0.17080376 -0.019891461 -0.014046363 0.16961001
-0.11491936 0.010583895 -0.30484292 -0.27815983 0.3665071 -0.2501912 0.24607874 0.25677326
0.11669645 0.2983937 0.047569364 0.27929196 0.2825203 0.21795946 -0.12942666 -0.100126594
00000000: 009c 7a3e dcaa b5bd 7e94 5ebe d402 83be
00000010: cb5a 793e 34e2 6abd 7276 843e 41ae 523e
00000020: c02e 693d 7081 d13d 9e1f ac3b 0312 e5bc
00000030: 6b09 d7bd 2edb 323e d026 cebd bd1a febd
00000040: f160 943d c409 863e 1238 423d 9793 123c
00000050: 6423 85be ef87 8f3d d44c ef3d ee99 6e3e
00000060: 3b69 523e abe9 db3d 4512 e23c 3812 21bd
00000070: 7122 6a3d 104b d7bd c080 c83e c3df a2be
00000080: 5fe6 76bc bbfa 963e e118 83be 95b0 37bd
00000090: 9360 763e 3581 46be 0aa1 843e 9e4d 91bd
000000a0: a887 293e acae b4be 547c e03d 7513 903e
000000b0: 1355 393d f20f 983e 04ee 853e 1ce0 b13d
000000c0: c93d 803e fb21 233e 9775 03be 7b95 cb3d
000000d0: 483e 203c e65f aabe 3e73 37be 2f26 1c3e
000000e0: bbf8 403e 5479 aa3d 9506 a6bd 724b c0bd
000000f0: f082 7f3d 0c47 333e 1479 b53d 7f30 4bbe
00000100: 9b54 2bbd 885c 4bbe f917 8dbe 007e 5c3c
00000110: 33b9 85bc d257 393d e7b3 5bbe b6b9 563e
00000120: d131 72be b0a8 d33c 48af 64bd d6a7 333e
00000130: 9435 91be 3044 14be b505 813e ee64 c2bd
00000140: ae72 1a3e 87a5 7abe 16fd 093e 6f9c 88be
00000150: bec3 1d3e 72b1 d4bc 6ab6 9c3d ece9 3b3e
00000160: c57f b7bd 566b 4dbe aa22 76be a60d 143e
00000170: 91b9 66be c98f 4a3e 6887 dabd e41d 853e
00000180: 760a 34be 2ffc 55be 5da3 99be 92b4 893d
00000190: 2785 97be ffa4 8b3e 00ab f6bc 207f 853e
000001a0: 37ca 56be 5e4f 863d b05f 253e f258 a23d
000001b0: 756b 6d3d 4623 1dbe b7ae 6a3d 62bd 10be
000001c0: 18b6 573e 1399 033e 4187 90be e5d7 133c
000001d0: b3f5 433e b5bb f83d fce2 6b3e a4a4 1c3e
000001e0: 51cc 863e 3091 1abe 59ca 80be 1965 6d3c
000001f0: a877 60be f92c f5bd 42f1 a93e 9639 8f3e
00000200: 5719 08be 421e 0ebd d6af 0b3e 189d 4dbe
00000210: 4239 36bd 0c44 adbe 220f 24be 7e0d 903c
00000220: c83f 873d 6905 8fbe 51e0 88bc 2529 a839
00000230: 6cee 58be 9340 143e 6cec cc3e d840 1f3d
00000240: 1d48 153d ca27 8cbe 9622 61be 222a 04be
00000250: 06e7 95bb 2ed6 4f3b 58af 7a3d 05c3 c9bd
00000260: 84e2 683e beb9 2c3d 8dfc 10be 8db8 333e
00000270: a692 ca3d 67ed 0e3d 81f3 3b3e a109 a1be
00000280: 5ba1 90bd 960f 723e b6b6 7e3d 6e39 013e
00000290: a39b 22be d848 063d 17ef b3bd 9fdf d9bd
000002a0: 386d 413e cf0d 21be 6be4 7c3e 4c9a 6ebe
000002b0: 2b96 e73d 1ac1 93be e2bc 4b3e 6e69 8c3e
000002c0: a4e7 fabd 0812 6dbe 5ea3 38be fc5a b1bd
000002d0: 05da 00bd 9f62 b63e bd43 f43d 7be0 603e
000002e0: 69c0 27be 9bb7 3c3e baca 20be 6558 d33c
000002f0: 713b 04be 55fd d03d 3d17 cc3d e4d8 ecbd
00000300: fbbd 803e 4086 3ebe 2e3f 3cbe c079 aabe
00000310: 2c2c 6dbe 789d 623e 454a 503e 3472 903e
00000320: 7efb 97bd c0a1 8cbc b473 e6bd ad0d 413e
00000330: 66fa 8ebe d3dd 41be c1ae f8bd 7caf e7bd
00000340: 86a9 59be 9d20 513e c845 0d3e c6b7 adbd
00000350: ac57 b0bd ccf1 85be 8e3b 5ebd a012 5a3e
00000360: dfa0 323d 16e1 b33d c8c2 febd 8c60 11be
00000370: 4f8e 3f3e 96fb 01be 49f2 9a3d 515a 953d
00000380: 60bb 67be d08f 923e 3bd1 fa3d 8a5e 88bc
00000390: 7404 933e 7bcb 20be a7af 993e 4ed7 8a3e
000003a0: 0656 2f3e 7a4a 843d 724d f83c dc4a a0bd
000003b0: 2ee7 2e3e 6bf3 a2bc b722 66bc 3fae 2d3e
000003c0: d75a ebbd 1368 2d3c 5f14 9cbe f76a 8ebe
000003d0: d2a6 bb3e 1019 80be 11fc 7b3e c977 833e
000003e0: 8cfe ee3d 0fc7 983e 18d8 423d 5bff 8e3e
000003f0: 80a6 903e c430 5f3e 6c88 04be 2c0f cdbd

output.weight f4 [2, 512]
0.04411432 -0.012540405 -0.29426315 0.010094076 0.07685204 -0.069133356 -0.02009386 0.08919509
-0.31210712 -0.12738247 0.0004246095 0.13476245 0.29979113 -0.07435415 0.45965573 0.53127164
-0.09090282 0.042659514 0.44339353 -0.09582653 0.04056562 0.08275596 -0.00011733065 -0.03686351
-0.26270023 0.20944609 0.17054467 -0.009469043 0.06961562 0.147047 0.4847749 0.24542782
-0.14796758 -0.019880468 0.004587438 0.11113539 0.16430086 -0.022900868 0.07495744 0.28766853
0.013130523 0.21034727 -0.029142942 -0.056270067 -0.19871572 -1.5388434 0.2845223 -0.59660834
-0.57966924 0.09661617 0.09542801 0.020377021 0.14525393 0.21173297 0.20511532 -1.1460717
-0.0075079044 -0.056771025 -0.19700831 0.011293195 0.3685732 -0.015391689 -0.10391067 -0.13548832
0.08709834 0.030606775 -0.6862513 0.1016504 -0.011077184 -0.4975497 -0.37559915 -0.018089233
0.25811705 -0.86082834 -0.03803167 -0.054989908 -0.06530757 0.031176932 0.06225377 -0.02431741
0.15463649 0.01828099 0.03474192 0.18530156 -0.27913114 0.25223902 -0.3790251 0.2861542
0.074502915 -0.012721546 -0.46272635 -0.48752207 -0.036739007 0.11828236 -0.05819194 0.2094198
0.41753238 -0.0018927455 0.568495 0.17210433 0.27391046 0.0029235745 -0.031497527 0.070251964
0.0045950273 0.18904677 -0.0210398 0.12281958 0.01776334 0.0031788293 0.14389928 0.03454225
-0.0077473857 0.2254225 0.025766332 -0.01943259 -0.107094504 -0.004324563 0.11339002 -0.058727056
0.004367825 -0.018061293 -1.1665877 -0.007985321 0.32518557 0.014415947 0.12555605 -0.06573242
-0.005212038 -1.2181743 -0.0354056 -0.031631485 0.063207395 0.22547665 -0.10126589 -1.4940274
0.27256453 -0.013291962 0.30887502 0.060380638 0.038548294 0.18162093 -0.39432386 0.037579317
0.089721635 -0.22980785 -0.021964045 0.008104384 -0.24353538 -0.30036452 0.13644905 -0.09930247
0.13327432 0.22016457 0.12768312 0.055175096 -0.07158924 -1.7142426 0.14223753 -0.10096857
0.04949333 0.17167643 0.056445435 0.033329573 0.20515317 0.19376649 0.17182277 0.0355127
0.011988531 0.006459493 0.08798759 -0.018478664 0.06815917 0.022700306 0.21886641 -0.11198724
0.22473837 0.0010358915 0.0017082021 -0.005136259 -0.16729043 0.4542707 0.10503045 -0.042848557
0.11558151 -1.1201494 0.031372894 0.14740774 -0.4252449 0.006699728 0.114399865 -0.0793489
0.19080961 0.328149 0.19636536 -0.15534739 0.022582773 -0.04818802 0.05134319 -0.11022718
0.25859076 -0.001061026 0.23604682 -0.37073284 -0.19691065 -0.62508273 -0.12346199 0.00012657791
0.043221813 -0.026598815 0.18323527 -0.09396109 0.5604487 0.020550255 0.033166643 -0.380819
-0.08217552 -0.02119656 -0.0019706748 -0.033177987 0.069459625 0.096567735 -0.05531103 -0.01698411
-0.45509177 0.11145746 0.02890972 -0.58896255 -0.23660217 -0.84421575 0.042500198 0.10649353
-0.4367491 0.12230032 -0.108206615 -0.03295185 -0.6714814 -0.010285922 -0.84789515 -1.318888
-0.01645204 -0.23494825 0.26176816 0.007929802 0.14007945 -0.08415658 0.13590693 -0.07403502
0.10535677 -0.04087553 0.04052562 -0.09163564 -0.02031732 -0.014355566 -0.089779034 -0.030635238
00000000: 38b1 343d 4576 4dbc a9a9 96be a061 253c
00000010: 9a64 9d3d ca95 8dbd e19b a4bc eaab b63d
00000020: 81cc 9fbe 8d70 02be 1f9e de39 2bff 093e
00000030: 397e 993e fd46 98bd ff57 eb3e 6b01 083f
00000040: 422b babd bebb 2e3d 7a04 e33e b340 c4bd
00000050: 2328 263d f57b a93d 6a0f f6b8 31fe 16bd
00000060: a580 86be 0979 563e 43a3 2e3e 0c24 1bbc
00000070: a292 8e3d 7d93 163e 6a34 f83e 6e51 7b3e
00000080: d084 17be 5ddc a2bc 3852 963b f49a e33d
00000090: 7c3e 283e 9a9a bbbc 4983 993d 4a49 933e
000000a0: 6821 573c 4665 573e 2ebd eebc 717b 66bd
000000b0: 227c 4bbe d2f8 c4bf e8ac 913e 53bb 18bf
000000c0: 3465 14bf b3de c53d c36f c33d b6ed a63c
000000d0: 72bd 143e 87d0 583e c009 523e 7ab2 92bf
000000e0: de04 f6bb bc88 68bd 8cbc 49be 1807 393c
000000f0: a0b5 bc3e 6c2d 7cbc 1ecf d4bd 73bd 0abe
00000100: 9d60 b23d 0fbb fa3c 2aae 2fbf 162e d03d
00000110: 147d 35bc d6be febe 884e c0be df2f 94bc
00000120: eb27 843e 3f5f 5cbf 19c7 1bbd 193d 61bd
00000130: fabf 85bd c466 ff3c cffd 7e3d 4e35 c7bc
00000140: 0759 1e3e 04c2 953c 8b4d 0e3d b1bf 3d3e
00000150: 47ea 8ebe 7925 813e 940f c2be ce82 923e
00000160: fc94 983d 086e 50bc 78ea ecbe 7e9c f9be
00000170: a47b 16bd 063e f23d ac5a 6ebd 2572 563e
00000180: cec6 d53e 0016 f8ba e388 113f 1e3c 303e
00000190: fe3d 8c3e 7199 3f3b 8d03 01bd 43e0 8f3d
000001a0: e291 963b 7a95 413e a95b acbc d588 fb3d
000001b0: 6d84 913c e853 503b 555a 133e 2d7c 0d3d
000001c0: c8dd fdbb 28d5 663e ea13 d33c 1831 9fbc
000001d0: 5d54 dbbd 10b5 8dbb 0739 e83d c88b 70bd
000001e0: f91f 8f3b 47f5 93bc bf52 95bf ddd4 02bc
000001f0: b97e a63e dd30 6c3c c491 003e b89e 86bd
00000200: bec9 aabb 23ed 9bbf 7605 11bd 0490 01bd
00000210: e172 813d 5ae3 663e 7e64 cfbd 4a3c bfbf
00000220: 948d 8b3e 88c6 59bc de24 9e3e b051 773d
00000230: d1e4 1d3d d6fa 393e d1e4 c9be c5ec 193d
00000240: fabf b73d c052 6bbe f1ed b3bc 40c8 043c
00000250: 5761 79be 61c9 99be 4db9 0b3e 185f cbbd
00000260: 1079 083e d272 613e 5dbf 023e 48ff 613d
00000270: 619d 92bd 4d6c dbbf b7a6 113e 9cc8 cebd
00000280: 85b9 4a3d f2cb 2f3e 5433 673d 9784 083d
00000290: ac13 523e b96a 463e 4ff2 2f3e c475 113d
000002a0: 8b6b 443c 28aa d33b d632 b43d 9160 97bc
000002b0: 0997 8b3d fef5 b93c 841e 603e 9159 e5bd
000002c0: d121 663e c0c6 873a c0e5 df3a 104e a8bb
000002d0: 2f4e 2bbe 2b96 e83e 341a d73d f881 2fbd
000002e0: 00b6 ec3d 0e61 8fbf dd80 003d 0ef2 163e
000002f0: b3b9 d9be 6489 db3b 7a4a ea3d ad81 a2bd
00000300: 9863 433e 2503 a83e 0014 493e 6313 1fbe
00000310: 82ff b83c cd60 45bd 3d4d 523d cabe e1bd
00000320: 0266 843e 2012 8bba 42b6 713e b2d0 bdbe
00000330: f2a2 49be 6c05 20bf a4d9 fcbd 00ba 0439
00000340: 5b09 313d c2e5 d9bc 07a2 3b3e ac6e c0bd
00000350: 9179 0f3f 0259 a83c bfd9 073d b5fa c2be
00000360: a44b a8bd 68a4 adbc 7026 01bb a4e5 07bd
00000370: d940 8e3d 4ec5 c53d d28d 62bd 4322 8bbc
00000380: ca01 e9be cf43 e43d 14d4 ec3c 40c6 16bf
00000390: d747 72be 861e 58bf b014 2e3d 4819 da3d
000003a0: 949d dfbe 9778 fa3d 6e9b ddbd 85f8 06bd
000003b0: 34e6 2bbf 4986 28bc a80f 59bf 52d1 a8bf
000003c0: 6ec6 86bc 4696 70be 7a06 863e 00ec 013c
000003d0: fd70 0f3e 495a acbd 302b 0b3e ac9f 97bd
000003e0: 4ac5 d73d 1a6d 27bd 31fe 253d 77ab bbbd
000003f0: 8270 a6bc 9c33 6bbc 12de b7bd c0f6 fabc

output.bias f4 [2]
0.030222164 0.006576827
00000000: 7994 f73c 6c82 d73b
