flappy-bird-bot/runs/flappybird4_risky.pt (torch, 547045 bytes, 9 tensors)

fc1.weight f4 [256, 12]
000000 f8 a7 26 3e 7a 5e 5a bc 04 b1 91 be 52 61 a1 be
       0.16275012 -0.013328189 -0.28455365 -0.31519562
000010 b4 50 21 3d 8e 9d 81 3e 72 7b a1 bd ff 3e 78 3e
       0.039383605 0.25315517 -0.078848734 0.24242781
000020 6b 4d bd 3a 52 13 80 3e b9 54 f7 3d 7d 4b b1 3d
       0.0014442628 0.2501474 0.120767064 0.08656976
000030 ba 00 83 bd 25 c2 87 be 8b 82 0b be a0 c2 9d 3d
       -0.06396623 -0.26515308 -0.13624017 0.077031374
000040 3e be 81 3e be 56 54 3e 74 2c f7 3d 70 35 82 be
       0.25340456 0.20736215 0.12069026 -0.25431395
000050 45 ad 18 be 90 fd d8 bc 98 46 e0 bd 76 f2 4a be
       -0.14909847 -0.026488096 -0.10950965 -0.19819054
000060 b7 d3 2f 3e 87 9b bd be 21 8e 88 be 53 07 5c 3e
       0.17170607 -0.3703272 -0.26670936 0.21487169
000070 ae 48 87 3e fd ae 9a bc 4a 74 f1 bd 48 e3 b4 3e
       0.26422638 -0.018882269 -0.117897585 0.35329652
000080 4f ec 1a 3d 6d 8a 02 3f 2b 8d dd bc 0b 08 c2 bb
       0.037823018 0.5099247 -0.027044853 -0.005921369
000090 9f 5f 13 be 41 8b a4 be 31 d8 47 3c 80 3d 8c 3e
       -0.14391945 -0.32137492 0.01219754 0.2739067
0000a0 4e a0 9f be 15 52 45 bd 63 46 8d 3d 88 55 90 bd
       -0.3117699 -0.048173983 0.06898191 -0.07047564
0000b0 f2 b5 04 bd 26 19 25 3e 43 43 b5 ba 3f 2b 27 3e
       -0.03240008 0.16122875 -0.001382925 0.16325091
0000c0 51 ea 74 bd f0 14 64 3d 5d a1 a2 3e 39 9e 84 3e
       -0.059793774 0.05568403 0.31763735 0.25901964
0000d0 d1 e3 57 3d 0e 05 29 3e fe 9f f3 bd 86 7d c1 bd
       0.052707497 0.16505834 -0.118957505 -0.0944777
0000e0 eb 55 a4 be a0 74 c5 be 5b 72 7e 3c 08 30 3b 3e
       -0.320968 -0.3856554 0.015530194 0.18280041
0000f0 5a b5 f6 bd c0 d6 2d 3e 3f 7f 8d be 89 79 fe 3d
       -0.12046309 0.16976452 -0.27636144 0.12425525
000100 1c 69 8a bd 0b cd 6b bd e3 68 8f be 8e 50 ba 3e
       -0.06758329 -0.05756859 -0.2800971 0.36389583
000110 db bf 91 3d 04 01 97 3e cc 18 9f bc b2 8b 28 be
       0.07116672 0.29492962 -0.019421004 -0.1645954
000120 01 3f 06 3e 0c 3c 93 be 97 7c a3 be 4f 16 9d 3e
       0.13109972 -0.2875675 -0.31930992 0.30681083
000130 e7 58 aa 3e 3e da 8a bd e2 d1 fc 3d 6f 15 83 3e
       0.33270952 -0.06779908 0.123447195 0.2560229
000140 31 26 ae bc 64 58 a1 3e c1 5a 55 3e e9 26 81 3e
       -0.021258445 0.3151275 0.20835401 0.25225
000150 ae 24 1a ba d6 1d 9f be 29 ee 59 be 49 20 91 be
       -0.00058800995 -0.3107745 -0.21282257 -0.28344944
000160 61 2e 88 bd 5b 34 a6 3d 61 be 7b bc 5b c5 93 be
       -0.06649471 0.08115455 -0.015365214 -0.28861508
000170 c8 62 09 be c8 83 25 be de 2d 49 3e b9 94 41 be
       -0.13416588 -0.16163552 0.19646403 -0.1890439
000180 f2 f4 2f 3e a0 48 73 3e 52 64 76 3e c0 b4 38 be
       0.17183283 0.23758173 0.24061707 -0.180377
000190 a4 41 8f 3e 4b 1c 19 be c5 68 4f 3e 7b 71 40 bf
       0.27979767 -0.14952199 0.2025481 -0.7517316
0001a0 5d a1 37 be 35 a6 79 be 9a 5f a9 3c 45 ca 82 be
       -0.17932649 -0.24379809 0.02067547 -0.25544944
0001b0 e2 9c 8c be ee 1f 8d be 4e 7c 40 be f4 7b 6b 3e
       -0.27463442 -0.27563423 -0.18797418 0.22996503
0001c0 d0 13 63 bd 00 13 fa bd 67 28 38 be 96 e9 8e be
       -0.055438817 -0.12210655 -0.17984162 -0.27912587
0001d0 c0 f1 c2 3b 54 d5 55 3e 6c 03 4c 3e 60 99 80 3c
       0.005949229 0.2088216 0.1992318 0.015698135
0001e0 3b 54 99 bf 42 75 12 be d8 54 93 3e 95 11 e0 be
       -1.197883 -0.14302543 0.28775668 -0.43763414
0001f0 46 5b 76 bd f8 99 cb bd e6 ea 1c 3c 57 6d 84 3e
       -0.06014564 -0.099414766 0.0095774885 0.2586467
000200 76 25 86 3e 82 1a 14 bd ae b1 8b 3d da d2 4d 3e
       0.26200455 -0.036158092 0.06820999 0.20099965
000210 5b 4f 98 3e 78 ef de 3e b8 ee 4d 3e cb b6 48 bd
       0.29748043 0.43542075 0.20110595 -0.04900245
000220 54 4a 1f be 6d e3 19 3e 99 de 58 bc 0f b0 8c be
       -0.15555698 0.15028162 -0.013236665 -0.27478072
000230 86 53 b4 3d 96 a5 2d bf aa b0 1f bd 97 57 0e be
       0.08804993 -0.6783079 -0.03898684 -0.139006
000240 81 63 a6 bd 44 70 41 3e 5e 5b 96 3e 7e ba fd 3d
       -0.081244476 0.18890482 0.29366583 0.12389086
000250 a5 68 e4 bd 33 c8 78 be 20 16 d5 3d 78 d6 07 bf
       -0.11152772 -0.2429512 0.10404611 -0.5306163
000260 2e da 7b be 4e 4e 3e bf 57 3e f3 bd 82 64 83 3d
       -0.24594948 -0.74338233 -0.11877125 0.06415655
000270 67 54 e3 bd eb 37 d1 3b 6f a3 af be 67 c8 ed bc
       -0.11100083 0.00638484 -0.34304377 -0.029026223
000280 f6 9f af bd 91 5e 22 3e a6 57 e2 bd 96 e0 76 3e
       -0.08575432 0.15856387 -0.11051874 0.2410911
000290 af 0d b8 3c 0b a0 08 bf ad d8 a0 3d 6c 5e a3 3e
       0.022467462 -0.53369206 0.078538276 0.31907976
0002a0 14 1e b4 bd 74 7c 74 bd 08 0c 1d 3e 00 a2 96 3c
       -0.087947994 -0.059689 0.15336621 0.018387794
0002b0 00 a3 ca bb 12 fd 8f bd 68 1b 7b be 54 33 fc 3d
       -0.006183982 -0.07030691 -0.24522173 0.123144776
0002c0 2c e0 08 be ef de 2a be 14 a4 3d 3e 92 32 16 be
       -0.13366765 -0.16686605 0.18519622 -0.14667729
0002d0 00 43 fd bc 60 b3 01 bd b5 17 93 be d4 ac e3 bd
       -0.030915737 -0.031665206 -0.28729025 -0.11116949
0002e0 ac d0 4e be 28 3b 02 bd 54 62 4f 3e 12 68 84 be
       -0.2019679 -0.031794697 0.20252353 -0.2586065
0002f0 8a c6 4b be 06 33 b4 bd 04 a8 42 3e a2 dd 39 3e
       -0.19899955 -0.087987944 0.19009405 0.18150952
000300 16 f0 03 3f 3b e6 22 be 90 1c 85 3d 2c 57 14 3e
       0.5153822 -0.15908138 0.064995885 0.14486378
000310 eb 34 81 3e ab 04 7e be 35 fa 88 be 73 f9 43 bd
       0.25235686 -0.24806468 -0.26753393 -0.047845315
000320 dc fe d3 3c 83 cb c5 bc 01 60 ce 3d af a9 2e 3e
       0.025878362 -0.024144894 0.10076905 0.17056917
000330 3f 40 82 be 80 ae 40 3e 2c 4d c4 3d 5d 2f a4 bd
       -0.2543964 0.18816566 0.09585032 -0.08016846
000340 2d e1 3f 3d f1 9b 38 be 26 42 be 3d 0e 83 86 be
       0.046845604 -0.18028237 0.092899606 -0.26271862
000350 e8 99 fd bd e0 8c 27 3c fa 23 03 be 7a 0b 71 3e
       -0.12382871 0.010226458 -0.12806693 0.23539534
000360 cb f1 9d 3e 5f 70 91 be 4b 19 0f 3d b6 a1 aa 3e
       0.30848536 -0.28406045 0.03493623 0.333265
000370 30 d0 4d be bc 40 0f 3d 8a 9f 14 be 60 de ca 3e
       -0.20098948 0.034973845 -0.14513984 0.39622784
000380 c8 8b 05 be 14 ea 79 be 19 54 78 3e e2 07 92 3e
       -0.13041604 -0.244057 0.2425083 0.2852164
000390 d8 61 e2 3d 66 65 af 3e 6e 22 f4 3c 33 13 f3 bb
       0.110538185 0.34257048 0.029801574 -0.00741806
0003a0 9b ba ae 3d 2e 05 74 be ad 26 24 3e 48 05 e6 bd
       0.08531686 -0.23830101 0.16030379 -0.11231476
0003b0 62 eb 1a bc ce 5e 2a bf c4 ee 20 3d 40 d7 f5 3c
       -0.009455534 -0.6655091 0.039290205 0.030009866
0003c0 4b 5d ea 3c 94 80 2e 3d 01 45 a3 be 00 b6 92 3c
       0.028608939 0.04260309 -0.31888583 0.01790905
0003d0 f6 79 18 be 74 68 b0 be 9e 0a 32 3d 97 29 7e be
       -0.14890274 -0.3445469 0.043467157 -0.24820553
0003e0 12 ac c5 3c a0 2f 83 be 12 26 8c be f9 96 69 3e
       0.024129901 -0.25622272 -0.27372795 0.22811498
0003f0 2e 62 a0 be 84 a6 a2 3e 6e ae 77 3d f1 d3 85 3e
       -0.31324905 0.31767666 0.060469083 0.2613826

fc1.bias f4 [256]
000000 31 15 6e 3d 95 d0 79 be 7d 65 39 be ad 61 4b 3d
       0.05812568 -0.24395974 -0.18105121 0.049653698
000010 b7 81 98 3d b4 4d 5a 3e 2e 3c 5f be 7d 4d f7 3d
       0.07446616 0.21318704 -0.218003 0.120753266
000020 3d 86 1c 3d ee 58 ac bd 9b 49 2d 3e 94 68 71 bd
       0.038213957 -0.084153995 0.1692261 -0.058937624
000030 56 7d eb 3d 1e 62 44 3e da 10 df bd 00 7e d5 3a
       0.11498515 0.19178054 -0.10891886 0.0016288161
000040 b7 57 c5 3c 4f da 91 be a2 b8 61 bd 66 9b 1c 3e
       0.024089677 -0.2848687 -0.05510772 0.15293655
000050 73 a7 c8 bd e9 50 c1 3d 5d 84 e0 3d 41 9d 0a 3e
       -0.097975634 0.094392605 0.10962746 0.1353655
000060 44 67 ba 3d a4 1a 92 bc 68 ce 6b 3d 4c 13 42 3e
       0.091017276 -0.017834969 0.05756989 0.18952674
000070 e2 70 ee 3d c0 ef f3 bb f7 33 78 be 82 7d 83 be
       0.116426244 -0.007444352 -0.24238573 -0.25681692
000080 6f b9 30 3e c6 77 78 be 5b 12 00 3e 96 cd 93 bd
       0.17258237 -0.2426444 0.12507002 -0.07216947
000090 b4 ea 9a 3d 0f ea 1b be 93 6e 70 3e 64 2b 61 3e
       0.07564297 -0.15226005 0.2347968 0.21989208
0000a0 c0 74 f3 bd 6b 87 23 be 34 91 06 be 89 82 31 bd
       -0.11887503 -0.15969627 -0.13141328 -0.04333738
0000b0 2a 5f 58 be 61 a7 98 bc 0b 0a 9d 3e 20 1c 1b 3e
       -0.21130052 -0.0186345 0.30671725 0.15147448
0000c0 df fb 56 be 81 d3 0a be f3 3a 15 3e d6 1d f6 bd
       -0.20994519 -0.13557245 0.14573269 -0.120174095
0000d0 ea db 87 be 60 82 14 3e a9 76 c8 3d c3 60 92 be
       -0.2653497 0.14502859 0.09788258 -0.28589448
0000e0 84 c2 81 3c 8d 3c a1 3d ff 48 12 3e 3e 10 1e 3e
       0.015839823 0.07872877 0.14285658 0.15435883
0000f0 ac e0 2b 3e 62 ca df bd ad bf 15 3d 51 f6 e3 3d
       0.16784924 -0.10927273 0.03655975 0.111309655
000100 e5 44 75 be 32 ec cc bd c5 23 1b be d4 e5 1e bd
       -0.23952062 -0.10005988 -0.15150364 -0.0387934
000110 b6 9e 1c 3e 14 ae 79 be 99 c9 11 be c3 73 b2 3e
       0.15294918 -0.24382812 -0.1423706 0.34853944
000120 92 99 66 be 41 66 08 3e d6 f8 c7 3c 5d 89 d1 3d
       -0.2251952 0.13320257 0.024410646 0.10231278
000130 3c 3d 86 3e 37 14 01 be 59 00 5a be a6 dd c6 3d
       0.26218593 -0.12605368 -0.21289195 0.09710245
000140 33 69 8f be 1f 2b 92 3e 9c 5c 18 be 6e fc f0 3d
       -0.28009948 0.28548524 -0.14879078 0.11766897
000150 bc b1 49 be 22 2a c6 3e 9d 22 f3 3d 8b 72 0f be
       -0.19696707 0.3870402 0.11871836 -0.14008538
000160 9a f5 37 3e 7a 62 d7 3d d5 af df bd 14 70 7b be
       0.17964783 0.1051683 -0.10922209 -0.24554473
000170 14 98 90 be d5 2b 80 be 4b 1d 97 be d2 33 0f 3e
       -0.28241026 -0.2503344 -0.29514536 0.13984612
000180 dd 33 34 3e 4d 11 26 3d e9 e6 bc 3c 74 ad 17 3e
       0.1759791 0.040543843 0.023059325 0.14812261
000190 b2 3a 3d bd 5d 4c 3d be 38 63 46 bd 8a 86 04 3e
       -0.046198554 -0.18486162 -0.048434466 0.12941948
0001a0 44 13 41 3d d8 39 09 be 87 21 3e 3e ab e4 21 3e
       0.047137514 -0.13400972 0.18567477 0.15809886
0001b0 67 e0 45 3e 7d 96 a6 bd f5 65 87 be d0 59 4f 3e
       0.19323884 -0.08134172 -0.26444975 0.20249104
0001c0 34 3f 51 be 55 92 55 3e 63 fa 09 be ee 4a 3a be
       -0.20434266 0.20856602 -0.13474421 -0.18192646
0001d0 ce 10 80 be bc 2a af 3d b8 1a f8 3d a2 f9 42 be
       -0.2501282 0.08553073 0.12114471 -0.1904054
0001e0 a6 bc e9 3d 36 b2 55 3e 3a 4b 8b be 32 d1 3e be
       0.11412935 0.20868763 -0.2720583 -0.18634489
0001f0 43 84 58 be 88 ce 0f 3d 61 30 5a 3e c8 49 0e 3e
       -0.21144204 0.035109073 0.21307518 0.13895333
000200 f1 4d 0f b9 e6 ed 52 be 29 a0 63 bc 5f 66 58 be
       -0.00013666578 -0.20598564 -0.013893166 -0.21132801
000210 5a 3b ee 3c 80 16 50 be da 3d b5 bd 3a 79 a0 bd
       0.029081035 -0.20321083 -0.08849688 -0.07835622
000220 30 9a 46 be ab 23 43 be b4 d5 47 be db ba 84 3d
       -0.19394755 -0.19056575 -0.19515115 0.06480952
000230 09 51 ab bc 0e 4a 5b be e6 f0 16 be 8e 93 94 bc
       -0.020912664 -0.21414968 -0.14740333 -0.018136766
000240 e1 6a 32 3e 5f 69 23 3e 34 8f 7d be 5c c0 fa 3d
       0.17423584 0.15958165 -0.24761659 0.12243721
000250 f4 66 20 3e 32 52 3c 3e 2c cc 13 be cc 52 51 bd
       0.15664274 0.1839073 -0.14433354 -0.051104352
000260 bb 1e 9a bd 84 95 93 be b0 79 ae 3d 84 68 b9 3d
       -0.075253926 -0.2882501 0.08519304 0.09053138
000270 c6 93 68 be 79 ab 7b be 0c e4 21 be b7 36 eb bd
       -0.22712621 -0.2457713 -0.15809649 -0.114850454
000280 67 7e 6f be 0c 40 44 be 1b 8b c9 bd 0b 07 d3 3d
       -0.23388062 -0.19165057 -0.098409854 0.10304078
000290 fe 39 8a 3e 49 55 86 3c 98 34 24 be a3 93 33 3e
       0.2699737 0.016398089 -0.16035688 0.17536788
0002a0 ff ce 06 3d 09 0e 73 bd 96 97 4b be a8 f4 8f 3d
       0.03291225 -0.059339557 -0.19882044 0.07029086
0002b0 00 6f d5 3d c6 59 9a be ad ce 2b 3e 1c e9 89 be
       0.10421562 -0.30146617 0.1677806 -0.2693566
0002c0 4d 15 42 3c 3d 64 dc bd b9 2e 14 3a 7c 15 0c 3e
       0.011845899 -0.107613064 0.0005652714 0.1368007
0002d0 3e 83 50 be 20 57 26 3c cb f0 8f be bb b0 cd 3e
       -0.20362565 0.010152608 -0.28113398 0.40173897
0002e0 17 f0 1a be 52 97 90 be 20 67 2d 3c bb 89 30 3e
       -0.1513065 -0.28240448 0.010583669 0.1724004
0002f0 36 64 35 be 81 2f 3c 3e 19 5a 9b bd 92 97 0a be
       -0.17714009 0.18377496 -0.07585544 -0.13534382
000300 1b fe 8a 3d 34 f6 75 3e a9 20 2b bd 1e 71 ae bd
       0.06786748 0.240197 -0.041779194 -0.08517669
000310 0d 54 cc 3d 58 79 17 3e 9b 2d 25 3e 6d f1 42 bd
       0.09976969 0.14792383 0.16130678 -0.047593523
000320 82 5b 17 be 8a 7e 0c be 8b 61 40 bc f4 8a f7 3d
       -0.14781001 -0.13720146 -0.011742006 0.1208705
000330 28 13 cb 3d 82 8a fc 3d aa b0 4d be 3b ea 39 3e
       0.09915763 0.12331106 -0.20086923 0.18155758
000340 24 d8 96 3a 84 1a 72 bd 91 4b 72 be 82 0d eb 3d
       0.0011508507 -0.05910732 -0.23661639 0.11477186
000350 b6 57 cf 3c 10 a7 36 be db d0 33 3e 3f 3b 75 be
       0.025310379 -0.17837167 0.17560141 -0.23948382
000360 ba e2 a0 bd 4d 5c b0 3d 4a a0 56 3e 88 f3 90 be
       -0.07855745 0.08611355 0.20959583 -0.283108
000370 74 56 59 bd 6c fc 58 3e f2 16 d7 3d b8 cd e7 3b
       -0.053060964 0.21190041 0.10502423 0.007074084
000380 f5 eb 13 3e 67 4b 7c bd a7 5c 1f be 29 e1 8e bd
       0.14445479 -0.061595347 -0.15562688 -0.0697654
000390 8b 9e 5a bd 67 cc 0e be 3a d9 be 3c fe f9 48 3e
       -0.053373855 -0.13945161 0.023296941 0.19626614
0003a0 c3 07 4c 3e 92 35 fa bc 1e 00 8b be 33 02 21 be
       0.19924836 -0.030543122 -0.27148527 -0.15723495
0003b0 2a 0f 9a 3d b3 49 10 3e 19 56 6c be 2f 4a c7 be
       0.075224236 0.14090614 -0.23079719 -0.38923785
0003c0 4c 67 54 be fd 19 0f bc 90 b9 95 bc 0e 4f 12 be
       -0.2074253 -0.008734223 -0.01827696 -0.1428797
0003d0 a4 f3 70 be 62 ab 83 3e b0 7f 42 be 51 6a 67 3e
       -0.23530442 0.25716692 -0.18994021 0.2259915
0003e0 75 e2 bb 3d 89 14 d9 3c d8 d1 8c be f4 f4 36 be
       0.091740526 0.02649905 -0.27503848 -0.1786688
0003f0 44 ca 21 be f2 bd 63 be e9 d1 74 bd 9b 9e ec bc
       -0.15799814 -0.22240427 -0.0597705 -0.028884223

fc_value.weight f4 [256, 256]
000000 a2 13 7e 3d fc 18 d3 bc fb e2 88 bd 5b e9 11 b8
       0.062030442 -0.02576875 -0.06683918 -3.4788023e-05
000010 35 2b 06 bd 72 c8 52 bc 26 5d a9 3c 00 68 b8 b9
       -0.03275605 -0.012865173 0.0206743 -0.000351727
000020 d7 7e 85 bd bc 5a cb 3c 7b 6b 29 bd 6e 35 d6 bc
       -0.065183334 0.024823539 -0.041362267 -0.026148524
000030 80 e6 b9 bc c2 87 3a bc c0 a8 ac bc 6c c0 a5 bc
       -0.022692919 -0.011384906 -0.02107656 -0.020233355
000040 aa d8 02 3c e1 1c 8f bc a8 a9 1a bd ca e1 83 bc
       0.007986227 -0.017469825 -0.037759453 -0.016098876
000050 7b 1d 6a bd 62 1b 8e bb 7c 56 ee bc 7b 19 a9 3c
       -0.05715702 -0.0043367604 -0.029093973 0.020642033
000060 70 f3 99 bd 9e 3b 09 3a da b4 0c 3d a8 0e 6c bd
       -0.07517135 0.0005235019 0.03435216 -0.057631165
000070 37 5a 52 3d f2 58 2d bd b4 76 2f 3c ae 1f 0a bd
       0.051355567 -0.042321153 0.010709453 -0.03372162
000080 6a a4 78 3c 6a bd 39 3d f3 2d 1a bd 03 f7 19 bd
       0.015175918 0.045346655 -0.037641477 -0.037589084
000090 e3 8e 71 bd ab 16 2a 3c 90 6c 92 bd 0c 52 16 bd
       -0.058974158 0.010381381 -0.07149613 -0.03669934
0000a0 20 2f 26 3d f3 14 17 3d 02 6a b3 bd ed 1a e6 bc
       0.040572286 0.036885213 -0.08760454 -0.028089011
0000b0 25 6f cf bc 30 16 0c 3d 28 fd 2b 3d ea ed df 3c
       -0.025321553 0.034200847 0.041989475 0.027335126
0000c0 19 01 ba 3b c6 44 5b 3d cf 9a 80 bc e0 ea c2 bc
       0.0056764004 0.053532384 -0.015698818 -0.023793638
0000d0 2b cf be 3c 03 ce 5f bb 09 94 ea 3a 30 01 8c bd
       0.023292145 -0.0034149892 0.0017896901 -0.06836164
0000e0 6c 70 9a bd 94 de 35 3d 5d 5f e1 3a 7c 97 70 bd
       -0.07540974 0.04440172 0.0017194558 -0.058738217
0000f0 a7 34 04 bd 5c 64 df 3c 9e f8 a6 bd 4f a8 39 3d
       -0.032276776 0.027269535 -0.08152889 0.045326527
000100 98 4e 00 3c 80 73 f0 bc 9c fe 28 bd 1c b8 9c 3c
       0.007831238 -0.02935195 -0.04125844 0.019130759
000110 7e 65 8b 3c 2c 30 e4 3c 24 33 35 3d 66 2f 01 3d
       0.017016169 0.027855001 0.044238225 0.031539343
000120 c5 90 a1 bd 0a 86 56 bd ca a1 86 3c 3a 07 da 3c
       -0.07888941 -0.052373923 0.016434569 0.026614774
000130 1d fd ea 3c 7e 59 4d bd ea eb 88 bd 18 17 c4 bc
       0.028685147 -0.050134175 -0.06685622 -0.023936793
000140 7e 0e 10 bd 9b d9 3e 3c 5a c7 e1 bc 24 36 8c bd
       -0.03517007 0.011648561 -0.027560879 -0.06846264
000150 a4 21 a9 3c 2e 43 18 bc 7c ef 5f 3b 2a 62 33 3d
       0.020645924 -0.009293361 0.0034169843 0.04379479
000160 16 db 39 3d f7 69 f9 3b 75 35 02 3d 70 a2 be 3b
       0.045374952 0.007611509 0.03178926 0.005817704
000170 80 97 50 bd 86 df 2c bb a3 50 19 bd 77 e6 d7 3b
       -0.05092573 -0.0026378348 -0.037430417 0.006588753
000180 58 9c f9 bc 82 3e 82 bd 07 2c 9f 3c 72 6d 40 bd
       -0.030470058 -0.06359579 0.019430174 -0.046979375
000190 c1 9e c3 39 ba ab 84 3c 97 7e 29 3c 5c 26 93 bc
       0.0003731158 0.016195167 0.010345123 -0.017962627
0001a0 a9 3d 62 bd a7 4a dd 3c 78 50 53 bd 99 44 70 bb
       -0.055234585 0.027013136 -0.051590413 -0.003666198
0001b0 c6 8c 84 3b f5 ed 5f bd 8f bd 48 bd 46 5e 82 bd
       0.004045102 -0.054670293 -0.049008902 -0.063656375
0001c0 66 c2 50 3c fb 54 09 3d f2 06 29 bd 0e f3 54 bc
       0.012741661 0.03352831 -0.04126639 -0.012997402
0001d0 44 aa a7 3c e7 5e ba bc 8c 51 09 bd 3c 6a ee 3c
       0.020466931 -0.022750331 -0.033525035 0.02910339
0001e0 35 24 7b 3c b9 64 4b 3d c5 53 23 3d d4 bb 89 bc
       0.015328457 0.049656603 0.03987481 -0.016813196
0001f0 aa b7 12 3d 3d c8 92 3c 5f 02 67 3c 73 ff 5c 3a
       0.035819687 0.017917747 0.014099686 0.0008430399
000200 10 5a 32 3c ca 24 24 3d d5 96 44 bd 14 d8 89 bd
       0.01088573 0.040074147 -0.047995407 -0.06730667
000210 74 3a 46 3d a8 11 45 bd ce 4b 86 bd 96 e5 54 bc
       0.04839559 -0.04811254 -0.06557427 -0.012994191
000220 ac 16 61 3d a5 37 65 bd 6e 18 06 3d ea f6 5b bd
       0.054953262 -0.05596127 0.03273814 -0.053702272
000230 79 74 1a 3d 72 bd 2b bd 74 92 32 bd 02 1f 1d bc
       0.037708733 -0.041928716 -0.0435967 -0.009589912
000240 a5 fc 2f 3c 1e 05 8c 3c f8 d0 dd 3b 86 86 1a bd
       0.0107413875 0.017092284 0.006769296 -0.037725948
000250 d6 3e be bc fc ef 7d bd 94 83 b5 3c d8 e1 0f bc
       -0.023223322 -0.061996445 0.022157468 -0.008781873
000260 00 1c 17 3d ab 16 13 3d 74 54 5c bd 3c e1 85 bb
       0.036891937 0.03591029 -0.05379148 -0.004085688
000270 11 13 c9 3c c5 e7 5b 3c 74 3c 8f bd 03 cd 95 bc
       0.024545224 0.013421957 -0.069939524 -0.018286234
000280 58 be 1a 3d df 36 76 3c 00 c9 5f 3a 20 bf 44 bd
       0.037779182 0.015027731 0.0008536726 -0.048033834
000290 d4 27 6c bd 88 a1 2b bd a8 c2 a8 bc 1a 95 9c bc
       -0.05765517 -0.041902095 -0.020600632 -0.019114066
0002a0 45 28 30 3d d2 fb 2a 3c d2 c6 6f bd bc 96 e3 bc
       0.043007154 0.010436015 -0.05853922 -0.027781837
0002b0 88 7a 3b 3c 34 c7 9a 3d bd 3b 09 3d 77 01 37 ba
       0.011442788 0.07557526 0.033504236 -0.0006981114
0002c0 05 c0 c4 bc 20 d2 60 3c 44 72 32 bc 51 e7 a7 3c
       -0.024017343 0.013721973 -0.010891501 0.020496042
0002d0 36 ab 20 3d 4d c6 8c bd 30 1c 70 3d 5f 6b ba bc
       0.03922578 -0.0687376 0.05862063 -0.022756277
0002e0 6c e1 5b 3d 70 d7 e3 3b 24 c2 82 3c ef e7 cf bc
       0.053681776 0.0069531724 0.015961714 -0.02537915
0002f0 4a c5 00 3d 20 47 20 3d 5a 12 6c bc 74 4a 2d bd
       0.03143815 0.03913033 -0.014408672 -0.042307332
000300 d4 0e 93 bc fb 83 94 3c c0 c7 3a 3c ae ea 7d bd
       -0.017951407 0.01812934 0.011400163 -0.061991386
000310 b5 95 08 3c 98 a5 da bc 93 c3 4d bd 54 89 38 bd
       0.008336474 -0.02669029 -0.050235342 -0.04505284
000320 f6 ac be bc 8e 3a 4c 3d f7 5f 69 bd bc 51 46 bc
       -0.023275834 0.04986053 -0.056976285 -0.012104448
000330 b8 d9 cc 3c c4 ea 37 bd 7c 83 36 bd cb 26 f3 bc
       0.02500616 -0.044901624 -0.044558987 -0.029681584
000340 e5 ea 7f bc b4 94 53 bd af a4 0e bc 10 59 85 bd
       -0.015619968 -0.051655486 -0.008706256 -0.06511128
000350 ed bb ae bd c0 f7 16 3b 59 55 f5 bc 4e d6 2f 3d
       -0.08531938 0.0023035854 -0.029947923 0.042928986
000360 24 29 12 bd a2 41 12 bc 0e a8 18 3d 50 c2 4c 3c
       -0.035683766 -0.008926781 0.037269644 0.0124975
000370 d0 6a 23 3d ae 5c 5a 3d a6 6c 8d bd 4d 72 0e 3d
       0.039896786 0.053311042 -0.06905489 0.034776974
000380 a6 70 93 bd 4a 7a 19 3d c8 9d c6 bc 82 66 65 bd
       -0.0719922 0.03747014 -0.024245158 -0.056005962
000390 98 8f 2c bc 40 de 5c bd b1 f2 08 bc 6a a2 ad 3c
       -0.010532282 -0.05392289 -0.008358643 0.02119561
0003a0 56 69 eb 3c 4d e8 39 bd 26 c3 0c 3d ee 66 7f 3d
       0.028736752 -0.045387555 0.034365796 0.06235402
0003b0 4a e2 f2 bc 38 fc e1 bb 00 32 8d bb 4c 9b 0c bd
       -0.029648919 -0.006896522 -0.004308939 -0.03432779
0003c0 fa c6 40 bd bf f2 22 3d 42 51 3c bd a6 93 7c bd
       -0.04706476 0.039782282 -0.04597593 -0.061664246
0003d0 38 85 7d 3c 48 63 07 3c 16 0d 2c 3d 2b c3 dd 3c
       0.015473656 0.008263417 0.042004667 0.027070602
0003e0 3d 43 93 bb 75 27 35 bd e3 92 ae ba 88 59 33 bc
       -0.0044940994 -0.044227082 -0.0013318922 -0.010946639
0003f0 31 a9 dc 3c 80 eb cd 3b a3 f5 24 3d b4 a9 64 bd
       0.026936145 0.0062841773 0.04027332 -0.055825904

fc_value.bias f4 [256]
000000 f1 24 1a 3d 14 6e 17 bd e6 63 9d bd f1 0e 07 bc
       0.037632886 -0.036970213 -0.0768507 -0.008243308
000010 8a 87 0c bd 12 9f ae bd d4 c0 9e bd 72 d7 89 bd
       -0.034308948 -0.08526434 -0.07751623 -0.06730546
000020 91 c0 01 3c 4a 7a 4d bd 7d 0e b6 3b 40 64 62 bc
       0.007919447 -0.050165452 0.0055559264 -0.013817847
000030 4f dc 16 bd 6a e8 3f 3c 2c 04 3a bb 65 95 89 bb
       -0.036831196 0.011713127 -0.0028383834 -0.0041987174
000040 4a 34 89 3c ef 99 56 3b ce a3 f2 bc 4a 79 8d bb
       0.016748566 0.003274556 -0.029619124 -0.0043174373
000050 ef 70 2a bc 87 42 cd 3d f4 83 ee bc a6 e1 79 bd
       -0.010402902 0.10022455 -0.029115655 -0.06100621
000060 2b 0e 67 bd f3 ec 25 bb 35 51 db 3c 54 fc ce bc
       -0.056409996 -0.0025318235 0.026772121 -0.025266804
000070 7c f5 e4 bc fb cf a1 bd db 66 fe b9 bc c6 9d bd
       -0.027949087 -0.07900997 -0.0004852329 -0.07703921
000080 b6 a9 54 bd 74 61 60 bd 28 df 4b 3b c7 64 02 bd
       -0.05191966 -0.05478044 0.0031108353 -0.03183439
000090 59 6b 81 bd 16 e0 c3 ba af 74 db 3c da 88 1f 3e
       -0.06319303 -0.0014944102 0.026789038 0.15579548
0000a0 b8 61 5e bd 50 71 c0 bd 96 b3 4c bd 04 0a 24 bd
       -0.05429241 -0.09396613 -0.049975954 -0.040048614
0000b0 6b c1 93 bd 00 61 58 bd 43 7f 8b bd f8 4c 96 bd
       -0.07214626 -0.05282688 -0.068113826 -0.073388994
0000c0 88 06 85 bd b5 36 09 3e ad 63 63 3e 8d 31 53 bd
       -0.06495386 0.13399775 0.22205992 -0.051560927
0000d0 c4 66 e3 3c ad ea 2f 3e 39 d5 f8 bc 49 9c 49 bd
       0.027758963 0.17179365 -0.03037511 -0.04922131
0000e0 01 df 4f bd da 3c 87 bc 02 86 7e bd 94 ec 06 3d
       -0.050749782 -0.016508508 -0.06213952 0.032940462
0000f0 46 26 d9 3d fb 06 4b b8 12 b1 84 bd dd 99 b4 bd
       0.10603003 -4.8405473e-05 -0.06479086 -0.088184096
000100 1b 6a 88 bd cc 7d 63 bd 9d ab 15 3d 51 d6 64 bc
       -0.06660863 -0.05553989 0.036540616 -0.013967113
000110 fc aa 76 bd be 3c ef 3b ca 7b a9 bb d5 70 11 3c
       -0.060221657 0.007300942 -0.0051722275 0.008876999
000120 75 c6 ea bc 2f cb c3 bd 55 6d 32 3e 60 e7 fa 3d
       -0.028659085 -0.095602386 0.1742452 0.122511625
000130 db 15 a7 bd 9c 7a 81 3d aa 5c 4a bd 42 4e 8b bd
       -0.081584655 0.06322214 -0.049404778 -0.06802036
000140 a2 eb 32 3e 52 f4 98 bb ad b3 90 3d df 08 d3 bb
       0.174727 -0.004667797 0.070655204 -0.0064402665
000150 94 94 24 bb df 4f 43 bb e1 34 06 3d 89 57 2f bc
       -0.0025112974 -0.0029802246 0.032765273 -0.010702022
000160 86 d6 32 bd 6c a3 1c 3c 55 9d 15 3d 87 25 99 bd
       -0.043661617 0.009560447 0.036526997 -0.07477861
000170 03 02 68 bd d6 a0 31 bb 6e 24 32 bc 4c 67 21 3d
       -0.056642544 -0.0027103922 -0.010872943 0.039405152
000180 82 d7 05 bb 33 cd 0e 3e eb 62 98 bc de ca 50 3c
       -0.0020422642 0.13945465 -0.018601855 0.01274368
000190 92 54 4b bd c8 62 1c 3e 3f 67 03 bd 33 48 22 bb
       -0.0496412 0.15272057 -0.032080885 -0.0024762272
0001a0 8e cc 65 bd 1b fb 0b bd c0 b3 1f bd 67 1c ae bc
       -0.05610328 -0.03417502 -0.038989782 -0.021253778
0001b0 f9 9e 85 3a 4a 4e e0 bc 29 3d 8c bc 66 7a 8e bb
       0.0010194472 -0.027381081 -0.017119007 -0.004348087
0001c0 a1 39 82 bd 05 18 9c bc 6e 01 a9 bc 57 f6 41 bc
       -0.06358648 -0.019054422 -0.020630565 -0.011838517
0001d0 10 09 d3 3c 96 c4 db bc 28 8c 85 bd fb 92 43 bc
       0.025761157 -0.026827138 -0.06520873 -0.011936898
0001e0 48 1a 98 bd 2c b7 37 bd 43 e0 09 bd 5c f4 0e 3e
       -0.07426888 -0.04485242 -0.03366114 0.13960403
0001f0 54 2a 82 bd d2 bd 38 bb 55 98 8b 3d c0 1e d9 bb
       -0.0635573 -0.0028189314 0.068161644 -0.00662598
000200 6e fc af 3c 0e 9d 83 bd 73 a0 21 bd 42 4b 2d 3d
       0.021482673 -0.0642644 -0.039459657 0.0423081
000210 9c 87 98 bd da 16 5b 3c 65 82 93 3b a7 51 3d bd
       -0.074477404 0.013372147 0.004501628 -0.046220448
000220 ce 50 bc bd 5f 16 c4 bb 4c e3 64 bd 8e 23 9c 3d
       -0.091951 -0.005984112 -0.05588083 0.07623969
000230 aa 46 2c bc 18 a4 88 3c 11 c9 f4 bc 52 7b c2 3d
       -0.0105148945 0.016679808 -0.029881032 0.09496178
000240 d2 05 c5 bc 63 7a 92 bc e2 03 df bc 3b fc 50 bd
       -0.024050627 -0.017880624 -0.027223531 -0.051021796
000250 fd 83 28 bd 32 59 79 bd 02 cf 73 bc 44 80 93 bd
       -0.0411415 -0.06087608 -0.0148808975 -0.07202199
000260 8b 31 fd 3d c4 bb 6b bd e3 51 33 3d 81 fa c5 bb
       0.12362965 -0.057552114 0.043779265 -0.0060418253
000270 ff e2 4b bd 6a 59 71 bd 64 ea 06 bc 5a 63 ff bd
       -0.049777027 -0.058923163 -0.008234594 -0.12470122
000280 3d 64 ee bc 3d 78 89 bd 67 4b 74 bd 2b c4 23 39
       -0.029100532 -0.06712387 -0.05964222 0.0001561797
000290 02 15 76 bd 62 d0 b3 bd 73 d5 68 bd 44 9c 20 bd
       -0.06007863 -0.0877998 -0.056844186 -0.039211527
0002a0 b2 62 9a bd 45 23 e2 3b 91 a9 2b 3c 20 76 55 bc
       -0.07538356 0.006901177 0.0104774395 -0.0130286515
0002b0 7d 18 8a bd e7 c1 ee 3c ea 48 cf 3d 46 18 99 bd
       -0.06742952 0.029145194 0.10121329 -0.07475333
0002c0 d6 26 20 3e 85 cc f7 bc 50 80 34 bd 01 5d 47 bd
       0.15639815 -0.03024889 -0.04406768 -0.04867268
0002d0 23 6b 87 bd 10 74 d0 bb 4a 7b 52 bd 93 9d cf 3d
       -0.066122316 -0.006361492 -0.05138711 0.10137477
0002e0 7a f6 cb 3d 5e 88 f2 3d 54 d9 fb bc 5b f3 65 3d
       0.09959121 0.11842416 -0.030743279 0.056140285
0002f0 43 95 9d 3d 58 0f da 3c 7c 3a 81 3d b7 79 a0 bd
       0.07694485 0.026618645 0.06309983 -0.07835715
000300 74 76 60 bd fb ef ca bd 5a 13 ee bc fc 49 ed 3d
       -0.054800466 -0.09909054 -0.029061962 0.11586377
000310 86 28 07 3e 62 e5 ae 3d 52 d8 9f 3c bc a2 27 bc
       0.13199052 0.08539845 0.01951233 -0.01023167
000320 04 8e 2b bd 90 ed 33 3c fc 44 60 bd 2e 23 93 bd
       -0.041883484 0.010981932 -0.05475329 -0.07184444
000330 05 54 09 bd 73 1c 5b bd 12 76 ae bd e5 31 0f bc
       -0.033527393 -0.05349393 -0.08518614 -0.008739923
000340 25 6b c6 3c f6 77 8d bd 0c a2 46 bd f0 db c8 bc
       0.024221012 -0.06907646 -0.048494384 -0.024518937
000350 e0 5a 19 3d b9 df 71 3c 7b 84 87 bd 33 59 71 3d
       0.03744018 0.014762812 -0.066170655 0.058922958
000360 6c c8 cc 3c 6a 42 a3 3d bf 0c 4f bd 5b 93 46 bc
       0.024997912 0.07971652 -0.050549265 -0.012120093
000370 76 7c 94 bd 8c 62 2d 3d ee 21 03 bc 05 02 bf 3b
       -0.072503015 0.04233031 -0.008003695 0.005829098
000380 be bd 4e bd 9e 76 24 3d 31 a8 1f 3c 44 98 25 bd
       -0.05047392 0.040152185 0.00974469 -0.040428415
000390 d8 19 84 bc ed b6 dc 3c 2c 5e 8b bd f4 51 22 3e
       -0.016125605 0.026942695 -0.06805071 0.15851575
0003a0 37 25 31 3d 0c 1a 2f bd 4c 44 83 bd 00 ff dd 3d
       0.04324838 -0.04274945 -0.06409511 0.10839653
0003b0 03 5e 8c 3c d2 90 88 bd 27 e5 7f bd 95 62 b4 bc
       0.017134672 -0.06668247 -0.062474396 -0.022019664
0003c0 65 b0 8a 3d fe 76 80 3d e0 b8 9d bc 06 df 39 bd
       0.06771926 0.06272696 -0.019253194 -0.045378707
0003d0 fb 5f 9e bc 4d 19 8e 3d 14 31 37 bd 29 93 a8 bc
       -0.019332876 0.069384195 -0.04472454 -0.020577984
0003e0 5c 4b 6a bd 9a 25 cc 3c 1c 39 0c 3c 5f 82 80 bd
       -0.057200775 0.024920274 0.008558538 -0.06274866
0003f0 03 19 a4 bd 22 e2 03 3e d9 a6 fd bb df 83 ff 3d
       -0.08012583 0.12879232 -0.007740837 0.12476324

value.weight f4 [1, 256]
000000 d6 75 dd 3b 94 32 12 3c c0 27 29 be 85 3e b1 3c
       0.006758432 0.008923192 -0.1651907 0.021636257
000010 6c 6a 9e 3c 48 dd a2 3c 85 e7 1e be 51 03 52 be
       0.019337855 0.019880906 -0.15518005 -0.20509078
000020 64 b2 3a bd 1a 67 53 bd 66 ba a6 bd f6 5d 47 bc
       -0.045580283 -0.051611997 -0.081410214 -0.012168398
000030 e1 5b 0f be 40 4c 00 bd 31 40 93 3a d6 03 18 be
       -0.13999893 -0.031322718 0.001123434 -0.14845213
000040 4d 71 33 be 96 5d be bc bd d2 fe bc 5b 7e be 3c
       -0.1752369 -0.023237985 -0.031106347 0.02325361
000050 95 d0 80 bc 14 82 c7 3d 92 19 a1 3d e4 1f 4c 3d
       -0.01572446 0.09741607 0.07866205 0.0498351
000060 7e 0e bd bc 09 ea f7 bd d7 68 09 be 85 fd 81 3c
       -0.0230782 -0.121051855 -0.134189 0.015867958
000070 c1 65 2d be 10 c5 3b 3d c6 83 e7 bd 9c 9b c1 3c
       -0.16933347 0.04584223 -0.11304431 0.02363377
000080 0c 41 ef bc c6 cc 0e 3d b2 db f2 ba 31 8d 2c be
       -0.029205821 0.034863256 -0.0018528609 -0.16850735
000090 fb 42 21 3c 9c ef 07 3c 1a 28 81 bd d0 37 d9 3d
       0.00984263 0.008296873 -0.06306477 0.106063485
0000a0 85 41 f7 3c 12 00 7c bc 80 46 71 bd 2c 59 d2 bc
       0.03018261 -0.015380876 -0.058905125 -0.025677286
0000b0 46 62 60 bc 31 46 55 bc 50 81 26 bc 6d 9f 65 be
       -0.013695305 -0.013017223 -0.010162666 -0.22424097
0000c0 e8 f2 74 bc 55 70 d2 3d 68 8a ec 3e 76 83 8f 3a
       -0.0149504915 0.10275332 0.46199346 0.0010949213
0000d0 10 4f c9 bd 34 df 1a 3e f5 2f 4a bd c1 fb 95 bc
       -0.09829533 0.15124208 -0.04936214 -0.018308522
0000e0 5c b8 47 3c 1f 52 34 be fc 7a 9a 3c 5e d2 0d be
       0.012189951 -0.17609452 0.018857472 -0.1384978
0000f0 d8 d3 11 3d 0a a8 c2 3c 16 e3 9d ba 61 1e d3 3c
       0.03560242 0.023761768 -0.0012045826 0.025771322
000100 95 e5 0d be 6a b8 57 3c bb 2a 2f 3b 21 95 17 be
       -0.1385711 0.013166526 0.002672835 -0.14802982
000110 0e 53 0d 3d b7 a8 8c 3d 08 7a 12 bf 6e 0f 33 bf
       0.034503035 0.06868117 -0.57217455 -0.6994542
000120 e5 d5 fc bb 7f 06 12 be 4a 3e 1d 3e dd 5e 20 3e
       -0.007715928 -0.1426029 0.15355793 0.15661187
000130 4b 17 33 bc 49 cd 06 3e 4c b0 19 bd 4b 58 fa 3c
       -0.010930846 0.13164248 -0.037521645 0.03055968
000140 24 b0 2a 3e 9c 34 00 bd 98 9f 98 3e 97 75 e6 3b
       0.16668755 -0.031300172 0.2980926 0.007033061
000150 45 3c 5b 3c ad 45 12 be 94 30 99 3c 7d d2 09 bd
       0.013381069 -0.14284392 0.018699922 -0.033648003
000160 37 03 78 bd 6d 78 87 bb c8 9b e4 b9 4a 6e ab 3c
       -0.06054994 -0.004134229 -0.00043603615 0.020926613
000170 de ea ce bb c9 20 ce bd f2 7e 52 3d 0f 59 d3 3c
       -0.0063146194 -0.10064847 0.051390596 0.025799302
000180 02 fe 57 3d f6 19 04 3e 6a d1 4a 3d ca dc 7f be
       0.052732475 0.12900528 0.04951612 -0.24986568
000190 a1 7b b5 bc b1 71 07 3e 1b b9 00 be 97 34 f9 bc
       -0.022153677 0.13226964 -0.12570612 -0.030420585
0001a0 4d 90 30 bc 76 45 e8 bd 7a 5d 05 bb cc 12 68 3c
       -0.0107765915 -0.113413736 -0.0020349906 0.014164638
0001b0 5c ba 74 3b b6 73 9f bd 31 1b c1 3b df f2 bc 3a
       0.0037342524 -0.07785742 0.005893134 0.0014415643
0001c0 a1 67 e7 3c a0 05 28 be 21 76 9f 3b c4 1d 21 bc
       0.028247656 -0.16408396 0.004866377 -0.009833757
0001d0 35 41 84 bc 3e b5 35 be ec 3e 1d be ee aa 0b be
       -0.016144374 -0.1774492 -0.15356034 -0.13639423
0001e0 df 05 3c 3c 4c 55 86 3c a3 b9 9e bc d9 70 12 3e
       0.011476009 0.016398095 -0.019375628 0.1430086
0001f0 1f 95 aa 3c f2 79 9b bb 32 9d a0 3d e7 81 1c bf
       0.02082306 -0.0047447616 0.078424826 -0.61135715
000200 fa 46 35 3c e6 94 51 3d 40 61 5a 3d 01 3a 64 bd
       0.011064285 0.05116739 0.0533154 -0.05571938
000210 3f 97 06 3d 99 58 6c 3e f5 61 af bc 5d 7d ab 3c
       0.032859083 0.23080672 -0.021409014 0.020933801
000220 f6 94 5d 3d 91 2c 99 3c f6 75 4c bd d3 b0 02 3e
       0.05409714 0.018698009 -0.049917184 0.12762766
000230 1e 59 d8 bd e7 c3 73 3b da 9f ed bd 8c 48 ed 3d
       -0.10563873 0.0037195624 -0.11602755 0.11586103
000240 3b 63 b0 bc ac 01 af bd 6c 7f a6 bc e2 3b 03 be
       -0.021531692 -0.08545241 -0.020324431 -0.12815812
000250 df 6b ec 3c 52 b0 1a be 95 15 06 3c 4c 41 aa 3c
       0.02886003 -0.15106323 0.0081838565 0.02078309
000260 fb b5 a9 be 8c 48 cd 3c 1a 33 b9 3b 3b 45 2a bc
       -0.33146653 0.025059007 0.0056518437 -0.010392482
000270 9e 8b 98 bd dd 36 e4 3b bb 81 86 3c 77 7d 72 bd
       -0.07448505 0.006964548 0.016419282 -0.059201684
000280 a4 6f 41 bd 2a cb d7 bd e9 6e e9 bc a0 11 48 be
       -0.04722561 -0.10536797 -0.028495269 -0.19537973
000290 db cf 9e bb 32 fc ea bc 58 5f eb bd d2 dd 00 be
       -0.0048465556 -0.02868471 -0.11492795 -0.12584618
0002a0 f3 bc 7c 3a ac d9 a8 be cc e8 00 bd cd b0 24 3d
       0.0009641193 -0.3297857 -0.031472012 0.040207673
0002b0 78 ff c4 bd 0a e4 99 be 16 75 11 3e 40 ae e9 3c
       -0.09619039 -0.30056792 0.14204821 0.028525472
0002c0 46 a0 07 3e b3 2e a1 3c d6 b9 39 bd c9 29 da bd
       0.13244733 0.019675588 -0.045343243 -0.10652501
0002d0 bd 89 1d bd 8f 83 c3 be f7 bf c6 bc dc 9a 0b 3e
       -0.038461436 -0.3818631 -0.024261458 0.13633293
0002e0 1c f0 04 3e f2 2a c9 3d 12 be 69 bd 86 21 12 3e
       0.1298222 0.09822644 -0.05706603 0.142706
0002f0 fb 39 01 3e 80 b1 8a bd 57 c2 a0 3e 20 08 2f 3d
       0.12619774 -0.06772137 0.3139827 0.042732358
000300 35 d0 55 3c c2 b3 17 be 8f 60 17 bd 3a e7 08 3e
       0.013050129 -0.14814666 -0.03695732 0.13369456
000310 7c 08 ab be d2 2d 9f be 08 51 93 bd 04 2d b2 3d
       -0.3340491 -0.31089646 -0.0719319 0.08699992
000320 80 85 52 3b 9c 30 12 3d 6c 35 31 bc 7f 7f dc ba
       0.003212303 0.03569089 -0.010815959 -0.0016822665
000330 b8 25 bd bc a8 e8 b2 3c 7b 70 ed bd 85 4f b0 be
       -0.023089275 0.021839455 -0.115937196 -0.3443567
000340 7c 9c b9 bc 4e c0 01 3d 67 55 42 be 3a b2 f1 bc
       -0.022657625 0.031677537 -0.18977891 -0.02950393
000350 95 29 03 bd 78 ec ea bd 62 5f a4 3c 74 9c dc 3d
       -0.032022078 -0.11470884 0.020065013 0.107720286
000360 bb fb 69 be 2d ab 03 3e 01 24 5a bc b4 78 7d 3b
       -0.22849934 0.12858267 -0.013314248 0.003867668
000370 d9 22 a9 3c 8e e4 a9 3c e2 13 09 be 33 d0 0e be
       0.0206465 0.020738866 -0.13386491 -0.13946609
000380 8e 01 46 bc be 7c 2d bd 57 0a 1a bc 72 ac 0b 3d
       -0.012085332 -0.04235529 -0.009401879 0.034100004
000390 fb 77 19 3c 9a 7b 7f 3d 04 04 de bc fc 50 17 3e
       0.0093669845 0.062373735 -0.027101524 0.14776987
0003a0 c0 6a 57 3d 27 d2 9c bd 5f 41 45 3d 72 43 04 3e
       0.05259204 -0.07657271 0.048158046 0.12916353
0003b0 8b ac 46 3b 38 43 63 3d 9f ad e6 39 25 5f dc 3e
       0.0030315246 0.055484027 0.00043998376 0.4304134
0003c0 97 ff cd 3d 85 07 cd 3c e0 89 8b bb 5f 78 6c 3d
       0.100585155 0.025028 -0.0042583793 0.057731982
0003d0 92 94 68 bd 8c bf dd 3d c4 30 9c b8 72 36 3e bc
       -0.056782313 0.1082755 -7.447743e-05 -0.01160966
0003e0 12 98 b5 bc aa 6d 9b 3e bc 21 6b bb d6 3f 15 bc
       -0.02216724 0.30357105 -0.0035878262 -0.009109458
0003f0 ea 34 6b bd 12 6f ef 3d 1d 63 0e be ff 0b 95 be
       -0.05742351 0.11691107 -0.13904996 -0.29110715

fc_advantages.weight f4 [256, 256]
000000 ea 1c 73 bd 94 14 0d bd 90 84 8c bc ac c0 aa bc
       -0.059353746 -0.034443453 -0.017153054 -0.020843826
000010 d8 9f 57 bd e6 f5 5f bd c0 a9 98 bb a8 46 86 3c
       -0.052642673 -0.054677866 -0.0046589077 0.016391113
000020 8c 8b 06 3d 3a 7b 33 3d 7c 77 56 3d 32 cc 5e bd
       0.032847926 0.04381869 0.052360043 -0.054393955
000030 40 4c 8d 3b 60 6a 8e 3b 80 d9 34 3d 96 fe 45 bd
       0.004312068 0.004346177 0.044152737 -0.048338495
000040 f0 35 b2 bc f6 b6 2c 3d 40 4b 3c bd c2 62 66 bd
       -0.021754235 0.042166673 -0.0459702 -0.056246527
000050 74 66 f9 bc 30 92 d7 bb 46 21 5c 3d 74 ef 69 3d
       -0.030444361 -0.006578706 0.05374267 0.057113126
000060 aa 6a 24 bd 80 ee 2c ba 74 4c 6e bd c8 62 55 3d
       -0.040140785 -0.00065968186 -0.05817838 0.05209616
000070 00 66 cf 3a c4 1e 10 bd 4c 76 73 3d 1a 11 26 bd
       0.0015823245 -0.03518559 0.05943899 -0.040543653
000080 7e c3 14 bd b4 e7 88 bc d8 b3 df 3c 70 01 ba bc
       -0.03631925 -0.016712047 0.027307436 -0.022705764
000090 5e b5 1b bd d8 fa 5d 3c 90 f4 2f bd 32 e4 01 3d
       -0.038014762 0.013548575 -0.042957842 0.031711765
0000a0 d0 97 6d bc 68 1a 6a 3c 00 ca 48 bc b0 e9 62 bd
       -0.014501527 0.014288522 -0.012255192 -0.055398643
0000b0 80 55 dd 3a 10 4f 32 3d 60 0c 66 3b d8 fd 73 bc
       0.0016886443 0.04353243 0.003510259 -0.014892064
0000c0 c0 66 0c 3b fc 7f 58 3d e0 76 71 3c 00 69 7a ba
       0.0021423548 0.05285643 0.014737815 -0.00095523894
0000d0 a8 4e 2b bc 7c 53 1a bd c8 97 70 bc 6c 4e 3c bd
       -0.010455765 -0.037677273 -0.014684625 -0.045973226
0000e0 40 29 a5 bb f0 9d af bc 1c e5 17 bd fc 56 90 3c
       -0.005040318 -0.021437615 -0.03708373 0.017619602
0000f0 d8 98 78 bd a0 58 1a bd 26 e8 17 3d a0 45 67 bc
       -0.06069264 -0.037682176 0.03708663 -0.014115721
000100 5c fd d8 bc b4 d3 ce bc 7c 4e 31 bd f0 0f 19 3d
       -0.026487999 -0.025247432 -0.04328774 0.037368715
000110 98 69 03 3c ec 69 4b 3d e8 37 33 bd 80 35 dc bb
       0.008020781 0.04966156 -0.04375449 -0.006720245
000120 68 4a 7a bd b0 08 bb bc 96 59 42 bd 0e 1b 50 3d
       -0.061106116 -0.022831291 -0.047448717 0.05080705
000130 ac 0f 5b bd 02 a9 71 bd 78 04 b3 bc ec 76 f4 3c
       -0.053481743 -0.05899907 -0.021852717 0.029841863
000140 b0 91 5c 3c e8 fe 2b bc d0 be 61 bd ec 82 8e 3c
       0.013462469 -0.010497786 -0.055113614 0.017396413
000150 d2 07 09 bd 9e c8 66 3d 40 2b 05 bc 04 ea 23 3d
       -0.033454724 0.056343667 -0.008127987 0.040018097
000160 50 b8 55 bd 10 e1 a0 bb 48 33 d4 3c 32 ed 42 bd
       -0.052177727 -0.004909642 0.025903359 -0.04758949
000170 b2 10 21 3d 90 1f 3e 3d d4 1a ef bc 3c a0 28 3d
       0.039322563 0.04641682 -0.029187597 0.041168436
000180 36 b8 44 3d 7c 75 5e bd f2 23 69 bd 02 72 21 bd
       0.04802724 -0.05431126 -0.056919046 -0.039415367
000190 cc 6d 48 bd 10 df 97 bc 18 8a 72 bd dc 3d 1c bd
       -0.048932835 -0.018538982 -0.059213728 -0.03814493
0001a0 00 05 39 ba 3e 2a 4a 3d b4 b1 c1 3c 76 3f 19 3d
       -0.0007057935 0.04935669 0.023644306 0.037414037
0001b0 88 cd 4d bd 28 96 1e 3c 40 9f 6f bb e0 89 f5 3b
       -0.050244838 0.009679355 -0.0036563426 0.0074932426
0001c0 cc e6 04 3d 34 c9 97 3c 6a fb 0a bd 84 56 d8 3c
       0.032446668 0.018528558 -0.033931173 0.026408441
0001d0 18 6e 31 3d fe a4 23 3d dc f6 ae 3c 0c db a5 3c
       0.043317884 0.03995227 0.021357946 0.020246051
0001e0 ae 3c 77 3d f4 8b d3 bc 90 49 88 3c 50 d0 dc 3b
       0.060360603 -0.02582357 0.01663664 0.0067387
0001f0 10 07 30 bd 08 b8 45 3d c2 33 68 bd bc 53 af 3c
       -0.042975485 0.04827121 -0.056689985 0.021402232
000200 14 07 9f bc 60 8f 39 bd 9c b7 85 3c 48 14 10 bd
       -0.019412555 -0.04530275 0.016322903 -0.03517559
000210 8c ef 28 bd 7c 37 4d 3d 90 84 75 bc 90 0e 40 bd
       -0.041244075 0.050101742 -0.014985219 -0.046888888
000220 a6 f4 7f bd 08 ee 20 3c 9e 85 55 bd 40 3f c8 3a
       -0.062489174 0.009822376 -0.05212938 0.0015277639
000230 18 3e 7c bc d8 1e e6 bc 0e 65 36 3d 40 62 90 3a
       -0.015395664 -0.02809088 0.044529967 0.0011015609
000240 a4 45 bc 3c ae ce 57 bd 60 69 16 3c 0a 67 3b bd
       0.022982426 -0.05268734 0.009180397 -0.045752563
000250 0e 1e 6d bd 84 3b 1b bd 6c f9 e6 3c ba 53 1e 3d
       -0.05788999 -0.037898555 0.028195105 0.038654067
000260 62 0e 76 3d e2 93 7e bd bc 7b de bc 40 61 79 3d
       0.06007231 -0.06215275 -0.02715861 0.06088376
000270 dc e8 56 3d 50 0d ad 3b c4 a6 32 3d 74 15 b0 3c
       0.052468166 0.005281128 0.04361607 0.021494605
000280 d0 d8 fe 3c b0 cb d8 bc 18 95 2d 3d 0a 63 3f 3d
       0.031109244 -0.026464313 0.042378515 0.04672531
000290 90 63 7b bc 9a a2 61 bd 20 c2 c9 3b fe 88 5b 3d
       -0.015343562 -0.05508671 0.0061571747 0.053597443
0002a0 40 89 c8 3a 80 51 8e bc 78 af b8 3c 50 3c da bb
       0.0015299693 -0.017372847 0.022544608 -0.006660022
0002b0 8c a3 49 3d ac a3 5c bd 78 64 53 3c 7e ef 01 bd
       0.049228236 -0.053867027 0.012902372 -0.03172254
0002c0 34 0c f5 3c f0 b4 42 3d f8 c9 c2 3c a0 09 4e bc
       0.029913045 0.047535837 0.023777947 -0.012575537
0002d0 60 1a 7b bd f4 65 91 3c 50 7c 1b 3c 2c dc 68 bd
       -0.06130445 0.01774881 0.009490088 -0.056850597
0002e0 82 db 26 3d 00 58 e3 b8 70 19 ed bc 2a f4 0d 3d
       0.040736683 -0.00010840595 -0.028942794 0.03465668
0002f0 46 93 7d bd 5a 81 41 bd 80 a6 58 3d 36 41 22 3d
       -0.06190803 -0.0472425 0.05289316 0.03961297
000300 40 60 88 3c 48 f9 ff bc 20 e8 99 3c 74 d0 0a bd
       0.016647458 -0.031246796 0.018787444 -0.033890203
000310 4c 64 e0 bc 68 c3 0f 3c 64 55 a1 bc 80 d5 05 bd
       -0.027391575 0.008774616 -0.019694038 -0.032674313
000320 8c 26 fb bc a0 fa 62 bd 58 41 1c 3c 94 08 03 3d
       -0.030658029 -0.055414796 0.009537064 0.031990603
000330 48 c7 53 3d 3c 85 c7 bc 38 d2 2f 3c 8c 11 3d bd
       0.05170372 -0.024355523 0.010731272 -0.046159312
000340 18 fa d7 bc 48 e9 50 3c 40 ed f9 bc 38 ba 5c 3c
       -0.026364371 0.012750931 -0.030508637 0.013472132
000350 a2 5b 05 bd 4c 7e ea bc ec 71 8d bc 20 c0 5b bb
       -0.03255809 -0.028624676 -0.017266236 -0.0033531263
000360 20 07 31 3c b0 e9 16 3c ac 54 07 3d 0c ce 05 bd
       0.010804921 0.009210989 0.033039734 -0.032667205
000370 0c 42 a2 bc 74 74 8a 3c f8 76 5c 3c 0c 41 95 3c
       -0.019806884 0.016901232 0.013456099 0.018219493
000380 9c 2e 44 bd 94 e3 86 3c f0 9a c9 bc 90 df 88 bb
       -0.047896013 0.01646594 -0.024610013 -0.0041770414
000390 fc 4c 53 3d 2e 45 2f bd d4 09 61 bd 48 a0 40 3c
       0.05158709 -0.042790584 -0.054941013 0.011756964
0003a0 00 96 b8 bb 40 ea 00 bc 50 5d 80 3c 0c c8 cf 3c
       -0.005633116 -0.00786835 0.015669495 0.025363944
0003b0 0c ae ca bc 10 cb 99 3b e8 15 75 3d 00 08 9b b8
       -0.024741195 0.0046933964 0.059835345 -7.392466e-05
0003c0 c0 b8 5b 3d 20 cc 4e 3c 2e aa 06 bd d0 38 81 3c
       0.05364299 0.012621909 -0.03287714 0.01577416
0003d0 b8 2b 42 3c 20 04 51 bd 24 ba 42 bd 64 d7 a9 bc
       0.011851244 -0.051029325 -0.0475408 -0.020732589
0003e0 38 32 31 3c d8 9b 39 3c 8a 4e 10 3d e8 46 80 3c
       0.010815196 0.01132866 0.03523115 0.01565881
0003f0 cc 2e 41 3d 14 61 0f bd 9c 9f 60 bd b6 48 61 3d
       0.04716377 -0.03500469 -0.054839715 0.055000983

fc_advantages.bias f4 [256]
000000 d2 dd 76 bd c8 3b 96 bd b0 3d 39 bd af 19 39 bd
       -0.060270138 -0.07335621 -0.045224845 -0.04519051
000010 7f eb d0 3b 6f 93 12 3c 88 a0 15 3c f9 a2 58 bd
       0.0063757296 0.008946284 0.009132512 -0.052889798
000020 58 d9 3f 3c f6 39 ab bc 3f 90 e5 bc e8 d3 5f bc
       0.011709534 -0.020901661 -0.028022883 -0.013661362
000030 99 25 93 bc c3 fb 27 bc c8 60 b9 bc 59 57 12 3b
       -0.017962264 -0.010252896 -0.022629157 0.0022329895
000040 8b ae 3d bc a4 8e 19 bd e2 ef 3f bb fe 46 ff ba
       -0.011577259 -0.03748955 -0.0029287268 -0.0019476113
000050 e7 c1 63 bd 8b 0b 15 bb 54 e9 8d 3c f7 ed cf bc
       -0.05560484 -0.0022742476 0.017323174 -0.025382025
000060 4c 1f 51 bb ac 45 0c 3b 62 ea 04 bd 7d fd 81 bd
       -0.0031909524 0.0021403832 -0.032450087 -0.06347177
000070 87 b9 39 3b 63 15 16 bd c3 e7 05 3d 4d c8 a7 bc
       0.0028339343 -0.03664149 0.03269173 -0.020481253
000080 24 17 6e bd a8 09 a9 3c 77 43 f2 3c c9 a4 ae bc
       -0.058127537 0.020634487 0.029573185 -0.02131881
000090 75 87 d3 bc 56 9d 51 bd 24 7a 01 3a e3 2c 1c bd
       -0.025821427 -0.051175438 0.000493916 -0.038128745
0000a0 58 64 8d ba e9 22 11 bd 46 74 4b bd d3 e1 b4 bc
       -0.0010787351 -0.035433684 -0.049671434 -0.022080338
0000b0 48 b3 13 bd 8c 3f 14 bd 28 e4 15 bc 60 90 43 3c
       -0.036059648 -0.036193416 -0.009148635 0.011936277
0000c0 6d 68 8a bd de 73 8b 3c a9 d8 94 bd eb f0 64 bc
       -0.06758199 0.017023023 -0.07267887 -0.013973455
0000d0 c5 11 23 bd 46 9b 66 bd 2f d4 46 3e b7 d8 cd bc
       -0.03981187 -0.056300424 0.19416879 -0.025127752
0000e0 34 10 6b bd 7b 91 36 3c 82 b9 95 bd 2a 56 6a 3b
       -0.0573885 0.011143084 -0.073107734 0.0035756924
0000f0 82 9e 5a bc ad 50 02 3c 13 49 95 3c 4b bf 72 bc
       -0.013343455 0.007953805 0.018223321 -0.014816116
000100 f3 2c c5 bc e8 48 d8 ba fb 9c 6e bd 5a 90 73 bd
       -0.024069285 -0.001650122 -0.058255177 -0.059463836
000110 97 4c ee 3d f2 94 dd 3b 60 68 b0 3c 3c 20 16 3d
       0.11635702 0.0067621404 0.021534145 0.036651835
000120 0e 4e 39 bd 9d 71 50 3c 33 2c 39 3b 82 58 03 bc
       -0.045240454 0.0127224 0.0028255105 -0.008016707
000130 35 eb 42 3b 71 35 db 3c 33 ff 0e 3d cd 4b 41 3c
       0.0029742245 0.026758881 0.034911346 0.0117978575
000140 3f 52 8c bb f5 e5 5b bc 7a 74 a5 bd 26 5e 20 bd
       -0.0042822654 -0.013421525 -0.08078857 -0.039152287
000150 16 6e 7a 3b 24 98 71 bc 65 2a 0b 3d e5 74 4c bd
       0.003821259 -0.014745746 0.033975977 -0.049916167
000160 1f e1 92 bd 4e 9d 45 bd c0 9b 6f bd 23 6e 5c bc
       -0.07171845 -0.04824572 -0.058498144 -0.013453993
000170 b5 44 ac 3c 6d db 58 bd ae b1 32 bd ff b6 e4 ba
       0.021028856 -0.052943636 -0.04362648 -0.0017449557
000180 1b 87 c2 3c 77 78 2b bd ff 81 8b 3b 15 75 2f 3d
       0.023746064 -0.04186293 0.00425744 0.042836268
000190 a2 fa 50 bd 18 55 c3 bc 1b 07 a9 bc 6d ed 66 3c
       -0.051020272 -0.023844287 -0.020633271 0.014094693
0001a0 f4 67 ca bb 43 fb fa bc 8a e8 73 bd 4d e8 01 bd
       -0.006176943 -0.030637389 -0.05954794 -0.03171568
0001b0 4e 57 69 bd 52 bd e5 ba 36 81 98 3b 7b 8f 8a bd
       -0.056968026 -0.0017527735 0.004654075 -0.06765648
0001c0 e3 6a 94 bc ea 19 5d bd 6c 4c 25 3c bc 96 cd bc
       -0.018117374 -0.05397979 0.010089021 -0.02509629
0001d0 41 7d 4d 3c 1e ba 37 bd ab 2c 78 bd fc 8d 6c bb
       0.01254207 -0.04485523 -0.060589474 -0.0036095371
0001e0 9c 14 ab bd 08 43 99 3c c4 79 be bc 62 b3 36 bd
       -0.0835354 0.01870872 -0.023251422 -0.044604667
0001f0 27 ee 1f bd 4a 76 ec bc 77 e7 bc bc 01 e3 30 bc
       -0.03904548 -0.028864998 -0.02305959 -0.010796309
000200 cf ce 97 b9 85 4d 06 bc e3 1d 60 bd 96 82 cf 3c
       -0.0002895505 -0.008197193 -0.054716002 0.025330823
000210 13 e3 11 bb 0e 4e 6d 3c c1 c8 9d bd ae bd 77 bd
       -0.002226059 0.014483942 -0.077043064 -0.060483627
000220 43 29 7e 3c 2e b0 b3 ba b6 eb 3e 3b da b4 3e 3c
       0.015512767 -0.0013709122 0.0029132194 0.011639798
000230 59 dc d3 3c 48 35 ed bc 1e 8d 86 bc 0a f6 39 3d
       0.025861906 -0.02895607 -0.016424712 0.045400657
000240 77 5a 1e bd b9 a0 5a bc 3d 6a 6c bd 39 3f 69 bd
       -0.038660493 -0.013343983 -0.057718504 -0.05694506
000250 cf 8b 8e bd bb bb 00 bd fe cc d5 3c 87 81 b6 3c
       -0.0696026 -0.031429034 0.026098724 0.02227856
000260 4e d8 86 bd 90 15 7f 3c 89 f6 a5 bc 89 c9 02 bd
       -0.065842256 0.015569106 -0.020259159 -0.03193048
000270 83 5a e2 3c 9b 03 b6 3c 68 c7 f2 3c aa 87 5e bd
       0.02763105 0.022218516 0.0296361 -0.054328598
000280 30 27 c1 3c 58 52 6c bc 04 67 59 3c e2 39 db bc
       0.023578256 -0.014423929 0.01326919 -0.026761
000290 0a e5 91 bc e3 d8 64 bd 88 8a 90 bd 19 19 44 3d
       -0.01780941 -0.0558709 -0.07057673 0.047875497
0002a0 34 d9 87 bd 41 e0 b6 bc b3 83 a6 bd 83 7e 03 3d
       -0.06633225 -0.02232373 -0.081305884 0.032103073
0002b0 11 fb 87 3c 9f 36 e3 3c 10 ed 07 bd 6d 49 3c 3d
       0.01659921 0.027736006 -0.033185065 0.04596846
0002c0 d7 8f bb bd 55 9a bf bc 6f 8e 9c bc 43 ca 6e bb
       -0.09158295 -0.023389021 -0.019110886 -0.0036436475
0002d0 cf a7 5f bc b5 02 92 bd a9 e0 87 bd bb eb a3 ba
       -0.0136508485 -0.071294226 -0.066346474 -0.0012506166
0002e0 f2 11 50 bd 4e 78 42 bd 81 35 1a 3c 90 35 94 bc
       -0.050798364 -0.047478013 0.00941217 -0.018091947
0002f0 4c 78 b8 3c e5 27 23 bd 62 48 23 bd 27 b3 a9 bd
       0.0225183 -0.03983297 -0.03986395 -0.08286124
000300 67 a1 ec bc a0 1f b4 bd 17 7c 5a bc 22 d2 82 bd
       -0.028885556 -0.087950945 -0.013335249 -0.06387736
000310 0f dd 01 bd a7 3b 18 3c db bf 6c bc 07 3a 0c bd
       -0.03170496 0.009291566 -0.014450039 -0.034235027
000320 35 8c 78 bd 63 6d 84 bd 34 0e 5a bd 9b fd 14 3d
       -0.060680587 -0.06466176 -0.0532362 0.03637467
000330 15 c2 4b 3b 1a 12 ff 3c ca 28 87 bd bf ac fc bc
       0.0031091024 0.031136561 -0.06599577 -0.03084409
000340 df eb 81 bd 8e 8d b0 bd db a9 1b bd 75 71 2d bc
       -0.06343817 -0.086207494 -0.038003784 -0.010586132
000350 08 c6 c3 3c a5 5f 78 bd d6 24 7a 3c 42 79 80 bb
       0.02389814 -0.06063809 0.015267571 -0.003920705
000360 9c 2b 80 bd 28 56 a0 bb 21 c0 cb bd f9 ba 8d bd
       -0.06258318 -0.004893083 -0.09948755 -0.06920428
000370 eb 69 51 bd fa 14 aa bc 35 5b 89 bd df 6a 15 bd
       -0.051126402 -0.020761956 -0.067068495 -0.036478873
000380 0c 18 a2 bc 2e 8e 40 bd f2 51 1e bd b1 ac 75 bd
       -0.019786857 -0.047010593 -0.038652368 -0.059979144
000390 27 35 04 3d 3c 54 9b bd 6e 9a f6 3c 91 41 ec bc
       0.032277253 -0.07584426 0.030102935 -0.028839858
0003a0 9c c7 9c 3c 76 c1 11 bc c8 9b a9 bd d4 b2 63 bd
       0.01913815 -0.008896222 -0.08281666 -0.055590466
0003b0 9a 80 02 3d 15 6c c5 bc 53 9c 36 3d fa 15 cc 3c
       0.031860925 -0.02409939 0.044582676 0.024912823
0003c0 c4 f7 67 bb 73 9a 8f bc 88 1c fa bc a6 41 97 bc
       -0.0035395483 -0.017529702 -0.030531183 -0.01846392
0003d0 98 88 16 bd e0 22 25 bb 39 c1 15 bd ef 0d 73 bd
       -0.03675136 -0.002519779 -0.036561225 -0.05933946
0003e0 d3 7d 6b bd 6c bc 73 bd 0a 8d b2 bd ff e6 f6 ba
       -0.057493042 -0.059505865 -0.08718307 -0.0018837153
0003f0 78 94 aa bc 3d 35 af bd a8 7d 50 3d 9d 58 d1 bc
       -0.020822749 -0.08555076 0.050901085 -0.02555495
